jiont/expr/0.9746-0.001611/joint.pth (torch_old, 61958 bytes, 19 tensors)

weight f4 [5, 3, 5]
000000 f4 c1 f6 3d 40 da 7a 3c 0e 8d 57 be 93 76 80 be
       0.120487124 0.015310824 -0.21049902 -0.25090465
000010 ca 2e 38 3e 70 17 83 3d 2b 38 81 3e 00 d4 fe 3b
       0.17986599 0.06400955 0.25238165 0.007776737
000020 54 ec 6e 3e e8 44 4e bd a2 a4 19 3e 50 26 44 3d
       0.2333234 -0.050358683 0.15004209 0.0478881
000030 b8 82 83 be 87 5f 58 be e8 19 26 3d 2f 96 e9 bc
       -0.25685668 -0.21130191 0.04055205 -0.028513996
000040 33 02 ec 3d 50 c9 55 3e 25 e8 b7 3d 19 f6 25 be
       0.11523857 0.20877576 0.08979825 -0.1620716
000050 24 95 4a 3e 74 21 8e 3d a2 70 a6 3d 0c e3 59 be
       0.19783455 0.069399744 0.08126952 -0.21278018
000060 6b 8c 6a be 7f f0 a2 bf 7b 15 a2 40 45 5d b5 40
       -0.22905128 -1.2729644 5.065122 5.6676354
000070 6c f5 71 3f bc 5a 0a c1 34 5f db 3d 78 13 59 bd
       0.9451511 -8.647152 0.10711518 -0.052997082
000080 4e fc 15 3e 91 fd 0c be 34 84 ae bd c0 b1 17 bc
       0.14647028 -0.13768603 -0.085213095 -0.0092586875
000090 e8 e2 74 3e a7 ec 60 be 66 14 56 be c0 b2 1e 3c
       0.23914683 -0.21965276 -0.20906219 0.009686172
0000a0 00 57 39 bb db 0f 12 be 3c 9e 85 3d 96 65 d8 bd
       -0.0028280616 -0.14263861 0.065243214 -0.10566251
0000b0 38 d4 60 3d c4 7a 56 bd 00 5e 22 ba 4c 68 9f 3d
       0.054889888 -0.052363172 -0.00061938167 0.07783565
0000c0 d0 40 46 3e a0 2c 47 3d 46 ae 51 3e 28 b7 32 be
       0.19360662 0.048626542 0.20476636 -0.17452681
0000d0 b3 a5 80 be ad 7b 40 be 75 8a 6e be 2e 70 f5 bd
       -0.25126418 -0.18797179 -0.23295005 -0.11984287
0000e0 aa 9b 01 3e 00 c4 5e 3b 38 7b 1a 3e 4e 07 5c be
       0.12657037 0.0033991337 0.15086067 -0.21487162
0000f0 b6 e8 59 be e2 65 85 bd a8 24 1e be 6b d0 83 3e
       -0.21280178 -0.06513573 -0.15443671 0.25744948
000100 ec 41 a9 3d dc b8 f7 bd 00 72 b9 3b c0 dc 32 3c
       0.08264527 -0.12095806 0.005659342 0.010916889
000110 38 67 8c bc de 4e 38 be e8 75 f7 bd 96 bc bd bd
       -0.017139062 -0.17998835 -0.12083036 -0.092644855
000120 b7 62 05 be e4 e7 17 3e b3 61 58 be
       -0.13025938 0.14834553 -0.2113102

bias f4 [5]
000000 62 05 25 be 9f 65 39 be 00 80 21 b8 44 c3 f4 3d
       -0.16115335 -0.18105172 -3.85046e-05 0.119513065
000010 c8 8c c8 3d
       0.09792477

weight f4 [1, 5, 5]
000000 13 57 ed bd a2 37 ff 3d 34 23 58 bd 93 0e 17 be
       -0.11588874 0.12461783 -0.052767947 -0.14751653
000010 0e 16 98 3d ca 42 23 c1 11 da 1b c0 8e ef 48 40
       0.074260816 -10.203806 -2.4351847 3.1396213
000020 cf 10 c2 40 f1 5e bb 40 ba 06 c5 3d 22 7b 91 3d
       6.064552 5.8553395 0.096204236 0.07103564
000030 b4 28 37 bd dc 35 85 bd b3 1d 26 be eb 41 2f be
       -0.044716552 -0.065044135 -0.16222267 -0.1711499
000040 b7 4f c1 bd a9 17 10 3e a9 4e 1a 3e 12 2b 39 be
       -0.094390325 0.14071526 0.15069069 -0.18082836
000050 d0 55 00 bc f0 f1 86 bc 42 80 42 be 65 03 1b be
       -0.007832959 -0.016472787 -0.18994239 -0.15138014
000060 0d 38 41 3e
       0.18869038

weight f4 [20, 220]
000000 fe 0a bc be 27 85 21 bf 31 a1 98 bf 75 0d 1b be
       -0.36727136 -0.630938 -1.1924192 -0.15141852
000010 53 d5 8c be 5f 16 1c bf c8 70 24 be e9 64 ab 3e
       -0.27506503 -0.60971636 -0.16058648 0.33475426
000020 23 d1 05 3f 63 c7 15 3f 53 ab 07 3f c7 4e 47 3f
       0.5227224 0.58507365 0.52995795 0.7785458
000030 75 c0 ce 3e 38 3f fa bc 49 4d 9c be a3 5d 1f bf
       0.40381208 -0.030547723 -0.30527714 -0.62252253
000040 4a de b7 be 24 71 2f be bc 4d b5 bd 2e 0c 12 bf
       -0.3591178 -0.17133003 -0.08852717 -0.57049835
000050 fb 2c 13 bf 50 b1 9f bd dd 90 10 bc f2 83 44 be
       -0.5749051 -0.077974916 -0.008823601 -0.19190958
000060 51 0c f3 be 2c 26 b7 bc 1b 78 b2 3e 24 8d 0c 3f
       -0.47470334 -0.022357069 0.34857258 0.54902864
000070 25 fd 54 3e 9a ac 64 3e c6 fe aa 3e 00 99 05 3f
       0.20799692 0.22331467 0.33397502 0.52186584
000080 b9 54 fe 3e c9 31 e7 3e 7d ef b1 3e 1c 85 bf bd
       0.49674013 0.4515517 0.34753028 -0.093515605
000090 bb a6 38 bf 5a 1d 6a bf 66 3e 08 bf 7e e9 32 bf
       -0.7212941 -0.91451037 -0.5322021 -0.6988753
0000a0 bc 70 36 bf e2 70 4c bf 4c 27 14 bf f4 4f 02 be
       -0.7126577 -0.79859746 -0.5787246 -0.12725812
0000b0 d6 4f b0 be 57 2c 29 bf a5 06 79 bf 80 d8 3b bf
       -0.3443591 -0.6608328 -0.97275764 -0.7337723
0000c0 c7 b2 9c be 35 24 49 be c7 e7 d3 be be 7a 9b be
       -0.30605146 -0.19642718 -0.4138777 -0.30367082
0000d0 b8 76 d1 3e 91 a1 28 3f d1 8e 95 3e e9 d1 fe 3d
       0.40910888 0.6587153 0.29210523 0.12442381
0000e0 a8 16 a9 3e e4 2e 31 3f e5 b7 44 3f 7d 88 06 3f
       0.33025098 0.69212174 0.768431 0.52552015
0000f0 e0 48 d6 3e e1 9a da 3d 4a ef 7a 3e 97 69 0e 3f
       0.41852474 0.10674072 0.24505344 0.5562987
000100 4c 2f 5e 3f 88 2f 3c 3f 9d c6 4a 3f 9a 48 45 3f
       0.8679092 0.73510027 0.7920931 0.77063906
000110 0f ab 2e 3f c0 b0 4e 3f d7 50 5a 3f 18 a0 b0 3e
       0.68229765 0.8073845 0.852796 0.34497142
000120 4c 8f 79 3e 45 98 61 bd fa e6 50 be f1 db c7 bd
       0.2437107 -0.055076856 -0.2040061 -0.09758747
000130 81 2c e7 3e 6b af 00 3f 4e 24 c1 3d 38 89 b2 bc
       0.4515114 0.50267667 0.09430753 -0.021793947
000140 2a 88 ad bd 50 bf 14 be ff d4 86 be f1 6f 23 bf
       -0.08473237 -0.14526105 -0.26334378 -0.63842684
000150 53 3f c5 be 67 46 86 bd 9f 6c 04 be 23 dc 5e 3c
       -0.38524875 -0.06556397 -0.1293206 0.013602289
000160 d6 9a 67 be 9a ae 1a bf 0a 7e 9a be 73 17 10 3f
       -0.22617659 -0.6042267 -0.30174285 0.5628578
000170 62 a9 6e 3f 45 1b 78 3f f2 7c 0b 3f f2 ae a5 3e
       0.9322721 0.9691661 0.54487526 0.32360035
000180 0f 2c dd 3e 58 ff ec 3e 0a cd e9 bd dd d0 a0 be
       0.43197677 0.46288562 -0.11416061 -0.3140935
000190 d1 4b c1 bd 2f f4 5c be 40 d8 f6 be 14 55 01 bf
       -0.09438289 -0.21577524 -0.4821186 -0.50520444
0001a0 41 ae 8f be a7 e4 a3 be ed 00 1c bf a7 68 79 bf
       -0.28062633 -0.32010385 -0.6093891 -0.9742531
0001b0 2a a9 42 bf 67 ac 02 bf 57 43 30 bf 18 fd 98 bf
       -0.76039374 -0.51044315 -0.6885275 -1.1952238
0001c0 82 4f 74 bf 3d 1d a6 be da ea 35 3d a6 ff 87 3e
       -0.9543382 -0.32444182 0.044413425 0.26562232
0001d0 95 df 75 3f a7 e4 c9 3f 9b 18 a4 3f da c3 1e 3e
       0.96044284 1.5772904 1.2820009 0.15504399
0001e0 3a 71 7d bf 4e 96 9b bf b3 92 9b be 0f b5 4f 3f
       -0.99000895 -1.2155244 -0.3038536 0.8113565
0001f0 be 5e 51 3f 3d bb 07 be 1f 07 2e bf 94 62 01 bf
       0.8178519 -0.1325502 -0.67979616 -0.50541043
000200 6c 55 62 be 27 93 1b 3e 98 12 68 3e 01 d1 d6 3e
       -0.22102898 0.15192853 0.22663343 0.41956332
000210 a6 a7 2b 3f 75 a9 29 3f ca ce 6b 3e 28 68 9d bd
       0.67052686 0.66274196 0.23028103 -0.07685882
000220 4a 03 4a be 1e fe aa be 1e 81 28 bf c3 95 6c bf
       -0.19727817 -0.33397 -0.6582202 -0.9241602
000230 a5 9d 0f bf 95 86 f0 bc 08 08 a0 3d 85 56 6e be
       -0.5609992 -0.029361049 0.07814032 -0.23275192
000240 57 2b fe be 72 ed a9 be 20 62 cf 3d 10 53 c7 3e
       -0.4964244 -0.3318897 0.10126138 0.3893056
000250 f6 6f 80 bd 5d 8f c9 be 5f bf aa be db fe b9 bd
       -0.06271355 -0.3936719 -0.3334913 -0.09081813
000260 72 a4 cd be b7 3e ec be f7 b7 16 bf 9a 6e bd be
       -0.40164524 -0.46141598 -0.5887446 -0.36998445
000270 0a 06 d8 be 1c 0a 6f be 65 f5 b7 bd f3 42 97 bd
       -0.42192107 -0.233437 -0.08982352 -0.073858164
000280 ab c3 59 be 77 0e 25 be 14 c2 c5 3c dd b6 a9 3e
       -0.21266048 -0.16118799 0.024140395 0.33147326
000290 9e c0 24 bc e1 77 da bd 17 4f 5e 3e 3b 80 0c 3f
       -0.010055689 -0.10667396 0.21709858 0.54883164
0002a0 42 54 13 3f b0 a1 54 3e 55 a6 ca 3e d8 6a 4a 3f
       0.5755044 0.20764804 0.39580026 0.7906928
0002b0 31 0b 6b 3f cf db 70 3f e4 91 07 3f ac 53 76 3e
       0.9181395 0.940854 0.52956986 0.24055356
0002c0 c6 86 4f bd b0 7e 0c 3e 1c c2 71 3e 73 4c d6 3e
       -0.05066564 0.13720202 0.23609203 0.418552
0002d0 c0 49 2a 3f e0 eb 60 3f 7d 2a 45 3f 8d 37 04 3f
       0.66518784 0.87859917 0.77017957 0.51647264
0002e0 21 2b f6 3d 55 ac 96 3e 43 34 18 3f 0e f7 0d 3f
       0.12019945 0.29428354 0.59454745 0.554551
0002f0 85 eb 80 3e 83 0e 76 bd 1e 2c 9e be a0 53 b8 be
       0.25179687 -0.060072433 -0.30893034 -0.360013
000300 75 cb 76 be e9 f1 87 be 14 08 0e bf 5b 3a 0a bf
       -0.2410105 -0.2655175 -0.55481076 -0.53995293
000310 18 21 2a bf 7c 79 31 bf 64 1f 0e bf be ee 3e bf
       -0.6645675 -0.69325995 -0.5551665 -0.7458304
000320 79 38 58 bf b9 3b 84 bf 53 d7 3e bf 27 1f 42 bf
       -0.8446117 -1.0330726 -0.7454731 -0.75828785
000330 09 13 11 bf c9 b0 e2 be ec d1 38 bf 53 9d 59 bf
       -0.5666967 -0.442755 -0.72195315 -0.8500568
000340 39 21 2d bf d1 8a 29 bf b4 17 11 bf e8 89 67 bf
       -0.6762882 -0.6622744 -0.56676793 -0.90444803
000350 e3 da 87 bf 46 91 30 bf c1 cd 9a be cf fd 29 bf
       -1.0613674 -0.6897167 -0.30235103 -0.66402906
000360 53 82 98 bf c1 59 9f be 63 c7 42 be 0f 17 85 be
       -1.1914772 -0.31123164 -0.19021372 -0.25994155
000370 34 f3 c1 3d 65 f2 1c 3e 5a 69 a1 3d 2b 7b 15 3e
       0.094702154 0.15326841 0.07881422 0.14597766
000380 1f aa 52 3d 87 8d 80 3d a6 d9 62 3d 05 1f 58 3d
       0.05143177 0.06276994 0.055383347 0.052763958
000390 58 4a f1 3d f9 49 e1 3d b2 69 18 3e 6b 8c 51 3e
       0.11781758 0.11000437 0.1488407 0.20463721
0003a0 d4 c9 2f 3e e2 b0 e3 3d f3 e5 0e 3e 91 78 7f 3e
       0.17166835 0.11117722 0.13954906 0.24948336
0003b0 1b 53 4d 3e d3 65 29 3e 90 dc 19 3e 17 75 6a 3e
       0.20051233 0.16542749 0.15025544 0.22896229
0003c0 1b f2 0e 3e a3 4e ee 3d 70 c9 5d 3e 4e 8a 0c 3e
       0.13959543 0.116360925 0.21658874 0.13724634
0003d0 1a 58 35 3e 41 a1 dc 3d 07 67 61 3d 85 6d 4b 3d
       0.1770939 0.10772944 0.055029895 0.049664993
0003e0 65 ee fe 3c 59 2b 99 3d 58 70 79 bc d5 08 1a 3d
       0.031119535 0.07478971 -0.015224539 0.03760608
0003f0 09 b3 28 3b 20 db 8d 3d 8e e4 78 3d 24 af 42 3d
       0.002574148 0.069265604 0.06076484 0.04753031

bias f4 [20]
000000 03 53 64 bd b6 a3 14 3d 73 f4 2d bd e2 6e 65 bd
       -0.05574323 0.03628894 -0.042469453 -0.05601395
000010 f0 8e 71 3c ef d6 89 bd 7c cf 5c bd ae 86 84 bd
       0.014743552 -0.067304485 -0.05390881 -0.064710006
000020 36 8f 24 bd 34 cd 44 bd e0 d5 24 3c c5 75 7e bd
       -0.04017564 -0.04804726 0.010060757 -0.062124033
000030 d8 24 6b bd 0e d4 7c 3d b4 a2 f0 3c e4 75 1e bd
       -0.057408184 0.06172567 0.029374458 -0.038686648
000040 08 72 22 3d ed 85 62 bd 38 0b 48 bd 1e c3 4a 3d
       0.03965953 -0.055303503 -0.048838824 0.049502485

weight f4 [20]
000000 00 2e 0d 40 c5 bc 63 3f 95 76 46 40 f5 1c a2 3e
       2.2059326 0.88959914 3.1009877 0.31662717
000010 be 51 0a 40 46 6b 22 40 c5 b6 2f 3f 0e 66 80 3f
       2.1612391 2.5377975 0.6863826 1.0031145
000020 1c e5 ab 3d ba 2f 12 3f bc 26 9c 3f d2 b1 0e 3f
       0.083933085 0.57104075 1.2199321 0.5574008
000030 75 80 dd 3f 08 a7 2a 40 f1 fe b5 3f c6 bd 32 3f
       1.7304827 2.6664448 1.4218427 0.6982082
000040 1b 5c cb 3f c3 09 84 3f e4 a6 d7 3e bd 7c c1 3f
       1.5887483 1.0315479 0.42119515 1.5116192

bias f4 [20]
000000 4e e0 fc be de fc b3 be 27 51 2b c0 c1 fc 6b be
       -0.4938988 -0.3515386 -2.6768281 -0.23045637
000010 37 a9 1e 3e 21 ef d2 bf 25 74 2c bf 9b 37 ad bf
       0.15494238 -1.6479226 -0.6736472 -1.3532594
000020 10 52 f9 be 9b be fe be 9e 91 8c bf 9b 41 52 bf
       -0.4869542 -0.49754795 -1.0981939 -0.82131356
000030 2f 62 16 be a0 c8 0d 40 0f e4 5c bf f3 ca 2e bf
       -0.14685892 2.2153702 -0.8628549 -0.68278426
000040 d7 1f 92 3f c8 f8 42 bf 21 42 03 bf c2 3d 68 be
       1.1415967 -0.7616086 -0.5127278 -0.22679809

running_mean f4 [20]
000000 37 0a 3b cb ed 05 88 4b b3 f6 a9 cb 94 1a da 4b
       -1.2257847e+07 1.7828826e+07 -2.2277478e+07 2.8587304e+07
000010 01 94 a8 4b 27 ff 40 4b 6b b8 29 4c 7e b8 3e 4c
       2.2095874e+07 1.2648231e+07 4.449118e+07 4.999628e+07
000020 52 cb 9b cb f4 63 1a 4b d6 31 9c 4a 88 b2 eb 4a
       -2.042026e+07 1.0118132e+07 5.118187e+06 7.723332e+06
000030 d2 50 35 ca 14 61 97 49 14 2b 15 4b f0 22 06 4c
       -2.9706765e+06 1.2400985e+06 9.775892e+06 3.516307e+07
000040 d6 39 e3 ca 58 1c 07 4a 77 ef be 4b 01 f3 16 4c
       -7.445739e+06 2.213654e+06 2.5026286e+07 3.9570436e+07

running_var f4 [20]
000000 3c 78 38 54 85 f1 72 54 57 31 8c 55 cb 2b b3 54
       3.1691647e+12 4.1737364e+12 1.9267943e+13 6.156271e+12
000010 4e c7 ba 54 1c 6d 91 54 d0 ee a5 55 fe fd 96 55
       6.4176616e+12 4.9968065e+12 2.2805639e+13 2.0752204e+13
000020 f3 3a 8a 54 fe 13 13 54 97 c6 a9 52 2b 4d 83 53
       4.749556e+12 2.5267824e+12 3.6459063e+11 1.1278708e+12
000030 7d 8c f2 53 35 a1 0d 54 fd 93 a9 53 e6 18 70 55
       2.0834782e+12 2.43318e+12 1.4566646e+12 1.6499358e+13
000040 7c 0f c4 54 26 42 9e 52 d6 73 c6 54 6b f6 76 55
       6.736587e+12 3.398573e+11 6.8187754e+12 1.6971139e+13

weight f4 [2, 20]
000000 b7 1d 9f 3f 8a 52 7a be 20 35 fb bf df 95 53 3c
       1.2430943 -0.24445549 -1.9625587 0.01291415
000010 ff e3 8f bf 0e 54 b0 3f c3 66 15 3e 7c 1a 4b 3f
       -1.1241454 1.3775651 0.14589982 0.79337287
000020 6a 78 dd bc 3a f7 60 3e eb 0c 51 3f 96 41 17 bf
       -0.027034957 0.2196931 0.81660336 -0.5908445
000030 7a 39 6c bf c4 c6 c9 3f d0 0f 4c 3f ed 5a 00 3f
       -0.922752 1.5763783 0.7971163 0.5013874
000040 b3 9a 74 bf 6f 60 8e be ce 82 5b bb 68 f3 28 bf
       -0.9554855 -0.27807948 -0.0033494714 -0.6599641
000050 30 f5 90 bf c3 1c fb 3d 97 df 15 40 bf ba 83 bd
       -1.1324825 0.12261345 2.3417718 -0.06432103
000060 01 ef 8d 3f c3 33 b2 bf 37 de a6 3d 9f 35 62 bf
       1.1088563 -1.3922046 0.08147853 -0.8836307
000070 38 db 7e be 78 22 a2 be 1f b2 41 bf a2 28 5a 3e
       -0.24888313 -0.31666923 -0.75662416 0.21304563
000080 58 12 4a 3f f4 c2 a7 bf 11 f9 4e bf e3 d6 79 be
       0.7893424 -1.310637 -0.80848795 -0.24398379
000090 87 b0 89 3f 14 27 4f 3e 0e d3 86 be 42 52 14 3f
       1.0756997 0.20229751 -0.26332897 0.57938015

bias f4 [2]
000000 45 73 98 bf 70 80 a7 3f
       -1.1910177 1.3086071

weight f4 [20, 220]
000000 66 e7 e1 bc 8f 47 ea bd e4 82 01 3c c2 48 94 bd
       -0.02757616 -0.1143943 0.007904742 -0.0724044
000010 a8 48 51 bd 9b 4b e5 bd a3 26 2b 3c bd b6 2c bd
       -0.05109468 -0.11196061 0.010446223 -0.04216646
000020 fc be 7a bd 19 4f b1 bd 3f dd c8 bd ce dd 1a 3d
       -0.061217293 -0.08657665 -0.09807824 0.037809186
000030 fa 5d 85 bc 50 c7 04 3d a5 50 bb bd e0 a4 ba bd
       -0.016280163 0.03241664 -0.09146241 -0.09113479
000040 e3 a5 64 bc 11 40 95 bd ea a8 88 3c 15 10 ea 3c
       -0.013955566 -0.0728761 0.016682107 0.028572122
000050 23 5a 52 3c 4d 61 09 bc 2a dc 83 3c 66 2e 8c bd
       0.012838873 -0.008385015 0.016096193 -0.06844787
000060 51 9b 72 bd 04 bd dc bb a2 5f be bc 8f d4 c0 bb
       -0.059230153 -0.0067363996 -0.02323896 -0.005884714
000070 d5 1d 8a 3b 7b 27 4e 3d dc 4a a4 bc de fe e3 bc
       0.004214982 0.05033062 -0.020055227 -0.027831491
000080 a7 e3 51 3d 2a c0 2f 3c 71 e4 92 3c 89 54 0d bd
       0.051242497 0.010726968 0.017931195 -0.034504447
000090 ed 40 30 bc 9e 56 38 ba 57 96 a5 bc cf ca 9b bd
       -0.010757667 -0.000703195 -0.02021329 -0.07607042
0000a0 fc 83 45 bd ab 2b 12 3d 3e 55 2f bd 74 e3 aa bd
       -0.048221573 0.035686176 -0.042805903 -0.083441645
0000b0 9d 18 61 3b 3b 9a 22 3d 25 b4 56 bd 6f 7d e3 bc
       0.0034346946 0.039697867 -0.052417893 -0.027769772
0000c0 47 95 1b 3d 4a 73 7f bd b3 8e 3b bd 70 b7 c8 3c
       0.03798416 -0.062365808 -0.045790385 0.024501532
0000d0 28 0b 86 bd c4 0a 8e bd e5 fc 61 bd 4e f9 89 3c
       -0.06545097 -0.06935647 -0.05517282 0.01684251
0000e0 60 1a 5c bd 7b 93 69 3c d9 59 a8 bd 61 c4 3b bd
       -0.05373609 0.0142563535 -0.08220262 -0.04584158
0000f0 d4 46 58 bd 5d 0c 33 3d 0b 4d 92 bd 21 00 45 3b
       -0.052801922 0.043712962 -0.07143601 0.0030059891
000100 42 81 6d bd cb 1e 24 3d 9f 5d c1 3c 55 d4 9f bc
       -0.057984598 0.04006843 0.023604212 -0.019510427
000110 25 fb 11 3d ef a9 84 bd 35 a8 41 bc 8c 27 2d bc
       0.0356399 -0.06477725 -0.011819889 -0.010568511
000120 b4 8b c6 3c c3 20 8a bd 49 05 2e bc 14 8e a4 bc
       0.024236538 -0.0674453 -0.010621377 -0.02008728
000130 85 b6 aa 3c b5 84 dd bc 03 cc d3 bd 84 b2 ad bd
       0.020838985 -0.027040819 -0.103416465 -0.08481315
000140 a6 35 9d bc 42 33 da bd 4e 67 99 bd e5 7d f9 bd
       -0.01919062 -0.10654308 -0.07490407 -0.121822156
000150 b2 d6 77 bd 1c 86 21 bd d6 aa fa bd 79 e5 de bd
       -0.060507484 -0.039434537 -0.122396156 -0.10883612
000160 8d 67 4c 3c 3a 49 d5 bd 84 a9 ce bd 2c ec 1f 3c
       0.01247586 -0.104143575 -0.10090926 0.009760898
000170 85 1a 33 3b 8a 57 c3 3a 01 9e d2 bd 45 31 bc bd
       0.002732904 0.0014903408 -0.10284043 -0.09189085
000180 68 2c 38 3c 97 02 98 bd a9 1b 83 bd 24 ab d3 bc
       0.011241056 -0.07422369 -0.0640176 -0.025838442
000190 83 a1 9c bd 4b 1b 9f bd 62 5e 88 bd 9f 5a 38 bd
       -0.076479934 -0.077688776 -0.06658627 -0.045008298
0001a0 73 3e d0 3c 7e 3b cc bd dc ef 60 bc f3 0d c3 bd
       0.025420403 -0.09972285 -0.013729062 -0.09524145
0001b0 9e 2b ae 3b 31 e4 4d 3c c5 a4 50 bd 6b ac 80 bd
       0.005315258 0.012566612 -0.050938386 -0.06282886
0001c0 c2 f6 39 bd 0f 63 89 3c 55 4c 93 bd 9f 58 9b 3c
       -0.045401342 0.016770868 -0.071922936 0.018963156
0001d0 8a 7d 55 bd 27 8e 99 bd db ac b8 bc d6 80 bb bd
       -0.052121677 -0.074978165 -0.022543361 -0.09155433
0001e0 ab 37 b0 bd 24 7b 00 3c 42 fe 60 bc 93 9c e0 bd
       -0.08604368 0.007841859 -0.013732495 -0.10967364
0001f0 64 21 9e bd 1a c2 68 bd 06 2d 93 bc e6 d2 b7 bd
       -0.077212125 -0.056825735 -0.017965805 -0.089757726
000200 50 f3 5d bd c6 77 87 bd da 8d af 3b 54 f4 05 be
       -0.05418712 -0.06614642 0.005357486 -0.13081485
000210 72 f4 99 bc 75 0b 42 bd 79 72 49 bd e4 85 21 be
       -0.018793318 -0.047374208 -0.049181435 -0.15773731
000220 cf 50 c5 bd 51 83 6e bd 53 fe 8f bd d6 34 22 be
       -0.09634554 -0.0582307 -0.0703093 -0.15840468
000230 60 da ca bd 72 7e 10 be eb 55 cd bd 87 aa 0a be
       -0.09904933 -0.14110735 -0.10026153 -0.13541614
000240 8c 6f 39 be 8a 4d ee bd e0 46 43 be f9 5e c1 bd
       -0.18108958 -0.11635883 -0.19070005 -0.09441943
000250 dd 98 16 be 24 e2 ac bd d8 5d 8a bd e8 15 e8 bd
       -0.1470675 -0.084415704 -0.067561805 -0.11332303
000260 39 98 04 be 51 a0 1e be 88 d8 22 be cb 66 da bd
       -0.12948693 -0.15490843 -0.15902913 -0.106641375
000270 df e5 89 bd 72 f8 b7 bd de e1 22 be 61 5b d0 bd
       -0.067332976 -0.08982934 -0.15906474 -0.10173679
000280 78 68 ba bd 8f c1 03 bd 8c 9f a8 bc db e1 53 bd
       -0.09101957 -0.032167014 -0.02058389 -0.051729064
000290 a9 85 05 be 7f 5b 99 bd 30 e6 9c bd 85 33 d2 bd
       -0.13039269 -0.074881546 -0.07661092 -0.10263733
0002a0 5f ca 8f bd eb 1d 42 bd 6b 57 3f 3b 82 c6 a8 bd
       -0.07021021 -0.047391813 0.0029196392 -0.08240987
0002b0 eb b4 2f bd 32 98 d9 bd ae 31 e3 bd 69 33 a9 bd
       -0.042897146 -0.10624732 -0.1109346 -0.08261759
0002c0 c0 36 2e bd cd a7 c5 bd 7b 30 65 bc 5a b4 ae bd
       -0.042532682 -0.09651146 -0.013988609 -0.08530493
0002d0 08 64 d8 bd 9d 06 ac bd 51 b8 94 bd 62 55 e7 bd
       -0.105659544 -0.08399699 -0.07261718 -0.11295582
0002e0 62 74 66 3c 58 94 da bd 4f ef 8d 3a 93 07 94 3c
       0.014065834 -0.106728256 0.0010828766 0.018070018
0002f0 3c 2d c8 bd 0f f6 24 bd ab d6 1b bd d9 a0 09 bc
       -0.09774253 -0.040273722 -0.03804652 -0.0084001655
000300 8f b6 b9 3b ca 71 ae bd f4 1e e5 bd 70 50 bd bd
       0.0056675146 -0.08517797 -0.111875445 -0.09243858
000310 d3 fa 06 bd 01 d1 cf bd fc 47 59 3b e3 38 e9 bd
       -0.03295405 -0.10147286 0.0033154478 -0.113878034
000320 20 1d 84 3c c4 3d bd bc 81 c8 bc bd 7a 97 a1 ba
       0.01612717 -0.023100741 -0.092179306 -0.0012328469
000330 37 c2 dd bd cf 7f 31 bd 57 2b 59 bd e7 2e 25 3c
       -0.10828059 -0.04333478 -0.053019848 0.010081983
000340 63 a7 b4 3c 21 c2 89 bd d5 32 73 bd 4f f9 d6 3c
       0.022052472 -0.0672648 -0.05937465 0.026241926
000350 1b 86 e2 3c fa e2 22 3d da 2c 2a 3c ad 0e 5a bc
       0.027651837 0.039767243 0.01038667 -0.013309163
000360 55 cf 77 3d 57 13 b9 3d 9f 5a 8e 3c ec 55 e4 3d
       0.06050046 0.09036892 0.017377196 0.11149201
000370 1c 56 26 bd f7 2d 32 3d 65 30 3b 3d f1 68 42 3d
       -0.040609464 0.043500867 0.04570045 0.04746336
000380 c1 21 aa 3d e4 b2 38 bd 7e ce aa 3d f7 fe 7a 3d
       0.08307219 -0.04509248 0.083401665 0.06127831
000390 85 69 10 bd 53 9c c8 3c c3 dc 97 bc 56 ec 69 3c
       -0.03525688 0.024488604 -0.018537885 0.014277538
0003a0 f9 45 a8 3d 0b b7 03 3d d0 5d 44 3c bf d8 b4 bc
       0.08216471 0.032156985 0.011985257 -0.022076009
0003b0 1b 82 00 3d 85 5c 38 3d 84 e9 e0 3d 9c 9b 90 3c
       0.03137408 0.04501011 0.109820396 0.017652325
0003c0 91 f8 a1 3d 12 bf 22 3d 2d f2 35 3c 26 17 b5 3d
       0.079087384 0.039733 0.0111051025 0.08842306
0003d0 3d 6b 51 3c a3 38 68 bc aa c0 25 3d 0d 24 74 3d
       0.012781915 -0.0141736595 0.040466942 0.059604693
0003e0 e9 25 5b 3b 92 89 ce 3c d9 ac 0f 3c de d1 b4 bb
       0.0033439344 0.025212083 0.008769237 -0.005518182
0003f0 cf fb e5 3d 69 df 9a 3d 38 82 cd 3d 2b f4 ca 3d
       0.11229669 0.07562143 0.10034603 0.099098526

bias f4 [20]
000000 c4 95 ae bc 86 40 6c 3d 82 ed 69 3d a0 33 e9 3b
       -0.021311648 0.05767872 0.05711127 0.00711675
000010 46 a9 5e 3d 80 b3 13 bb b5 75 83 3d 4a 29 88 bd
       0.05436065 -0.002253741 0.06418935 -0.066485
000020 20 f4 66 bb 0c 61 0c 3d 06 70 4f bd 3e 57 7d 3d
       -0.0035240725 0.03427224 -0.050643943 0.06185078
000030 a6 6f 32 3d 70 1f 8f bb 20 48 51 3d dc ee 41 bc
       0.043563507 -0.0043677613 0.051094174 -0.011836734
000040 12 bd 5b 3d e0 23 ce 3b 0c bb a1 3c 7c de d4 3c
       0.05364711 0.0062908977 0.019742511 0.025984995

weight f4 [20]
000000 5a d8 68 3e cc 1c dd 3e 50 95 db 3e a1 e7 c1 3e
       0.22738782 0.43186033 0.42887354 0.3787203
000010 d4 a1 1e 3f 89 4a 77 3e eb c6 b8 3d 48 b0 bd 3e
       0.6196568 0.24149527 0.090223156 0.37048554
000020 24 1f 18 3f c0 d9 37 3f 01 0b 4a 3f 3a 08 f8 3e
       0.59422517 0.71816635 0.7892304 0.48443776
000030 da 0a b8 3e 51 18 c6 3e f1 17 a8 3e 04 54 21 3f
       0.3594578 0.38690427 0.32830766 0.6301882
000040 10 fb 01 3f 67 55 32 3f be 10 e5 3e 3a cb 00 3f
       0.50773716 0.69661564 0.44739336 0.503101

bias f4 [20]
000000 45 b8 7f bf 58 79 56 bf d4 6f 6f bf 50 55 48 bf
       -0.9989055 -0.83778906 -0.9353001 -0.78255177
000010 52 33 5a be 4c 1d 36 bf d0 4f 5a 3f a4 f9 40 bf
       -0.2130864 -0.71138453 0.85278034 -0.7538092
000020 79 f4 19 bf f9 20 e0 be 8b a3 d0 be dc 03 44 bf
       -0.6013866 -0.43775156 -0.40749773 -0.7656839
000030 94 57 4f bf c3 3a 4a bf e9 00 4d 3f f5 90 33 bf
       -0.8099301 -0.78995913 0.80079514 -0.7014306
000040 35 c4 35 bf 9e f1 07 bf f5 d9 2c bf 19 00 42 bf
       -0.71002513 -0.53103054 -0.67520076 -0.757814

running_mean f4 [20]
000000 00 ff 7c cb 7c d8 2f 4b 31 30 54 4b 82 ff f2 4b
       -1.6580352e+07 1.152422e+07 1.3905969e+07 3.1850244e+07
000010 2d 0d 1e cb 5a d5 c6 ca 8c e8 89 4b 19 53 30 4b
       -1.0358061e+07 -6.515373e+06 1.8075928e+07 1.1555609e+07
000020 74 ab 43 4b d0 15 2c c8 c1 bd 87 c7 0c a6 81 4a
       1.2823412e+07 -176215.25 -69499.51 4.248326e+06
000030 70 ed 47 4b e4 37 db 4a 4b c4 b6 cb 9e 9d e3 c8
       1.3102448e+07 7.183346e+06 -2.3955606e+07 -466156.94
000040 8f bc d4 48 10 6a 87 48 3b 80 78 4a a8 d0 17 4a
       435684.47 277328.5 4.0714388e+06 2.487338e+06

running_var f4 [20]
000000 a4 d7 f7 53 a7 c9 b8 53 37 3e f3 53 85 4b 22 55
       2.1289495e+12 1.5873143e+12 2.0894417e+12 1.1152827e+13
000010 52 69 21 53 d5 2d ab 52 a2 ab 4f 54 69 29 9e 53
       6.932567e+11 3.6760417e+11 3.567751e+12 1.3585992e+12
000020 38 74 95 53 b7 13 78 50 d5 f4 95 50 47 27 9a 52
       1.2837999e+12 1.6648166e+10 2.0126804e+10 3.3104196e+11
000030 d0 bd d5 53 ce 9f 06 53 07 bd b1 54 b6 ac b7 4f
       1.8360251e+12 5.782067e+11 6.1070445e+12 6.1630986e+09
000040 46 e8 a4 51 85 8b 8a 51 79 9f 6d 52 66 e8 31 52
       8.853394e+10 7.438078e+10 2.5514569e+11 1.9102705e+11

weight f4 [2, 20]
000000 b0 15 ba be 6d 95 a6 be 9e bd e3 be a8 56 46 be
       -0.3634467 -0.32535878 -0.44480604 -0.19368994
000010 4a 4e c5 be 27 6d af be cc 35 08 bf 84 90 b2 be
       -0.38536292 -0.34262964 -0.5320709 -0.34875882
000020 af d8 8d 3d c4 67 33 be 73 cb 06 be 7d 03 89 3d
       0.06926095 -0.17520052 -0.13163547 0.066901185
000030 dc cb 51 be 21 d6 8d be a4 cc dd be c5 a6 bb be
       -0.20487922 -0.2770243 -0.4332019 -0.36650673
000040 99 31 57 be 34 01 41 be 0a c7 61 bd ba 6c b0 be
       -0.21015014 -0.18848115 -0.05512146 -0.34457952
000050 36 ff 84 3f 60 fd 38 3f f6 01 89 3f 36 d6 f4 3e
       1.0390384 0.7226162 1.0703723 0.4781968
000060 14 69 60 3c 67 62 06 3f 91 87 47 3f 4c d6 93 3e
       0.013696928 0.524939 0.7794123 0.28874433
000070 32 58 9b bc 04 06 d4 3e 27 40 cd 3e 08 cb b5 3e
       -0.018962953 0.4141084 0.40088007 0.35506463
000080 85 99 46 3f 38 a0 f2 3e 2d 1c 62 3e 60 61 25 3f
       0.77578 0.47387862 0.2208106 0.6460171
000090 43 b5 05 3f d4 36 94 3e 7c 56 1a 3e e4 c7 26 3f
       0.5222971 0.2894808 0.15072054 0.6514876

bias f4 [2]
000000 b2 07 20 bf 9a b1 28 40
       -0.6251174 2.63584
