jiont/expr/0.9702-0.001451/joint.pth (torch_old, 61958 bytes, 19 tensors)

weight f4 [5, 3, 5]
0.16476864 0.14001518 0.0012848381 -0.1723888 -0.14509834 -0.080747366 0.0064082444 0.059898496
-0.00967907 0.1933527 -0.17852819 -0.11091813 -0.16149856 -0.052755356 -0.07466143 0.039880455
0.21041173 0.25627628 0.15019614 -0.25726533 0.1712206 -0.1558221 0.10992971 -0.25191122
0.172907 -0.16631857 -0.1456543 0.120520085 0.0072855055 -0.08031936 0.13420337 -0.047513045
0.13641927 -0.016524937 -0.015400173 -0.25105062 -0.0019031778 0.016688516 0.18653217 0.1004559
-0.09871559 -0.19584493 -0.6377941 -0.2768771 -0.63319546 -0.16101658 0.15650195 -0.15527326
0.019652333 0.22447632 0.23013702 0.0132822385 -0.036563262 0.0763891 -0.2196412 1.0189462
4.332848 4.219437 -0.103829004 -7.1433945 0.23523843 0.05167538 0.10409483 -0.045613438
-0.060228407 -0.059393913 -0.23001046 0.035436153 -0.10145043 -0.011827722 -0.21935724 -0.031656593
-0.06438318 0.20678556 -0.14952263
00000000: 1cb9 283e 2460 0f3e 0368 a83a b186 30be
00000010: a994 14be e05e a5bd 40fc d13b 2058 753d
00000020: f694 1ebc 40fe 453e 18d0 36be 0b29 e3bd
00000030: e15f 25be 0016 58bd 18e8 98bd b059 233d
00000040: 2c76 573e a536 833e 04cd 193e 48b8 83be
00000050: 7454 2f3e d48f 1fbe d422 e13d 82fa 80be
00000060: 880e 313e 6a4f 2abe 6726 15be 3cd3 f63d
00000070: 40bb ee3b 7a7e a4bd 9c6c 093e 0a9d 42bd
00000080: 7eb1 0b3e 4e5f 87bc 0251 7cbc b589 80be
00000090: 0d74 f9ba 5bb6 883c 4a02 3f3e d3bb cd3d
000000a0: 662b cabd 938b 48be 7946 23bf d6c2 8dbe
000000b0: 1919 22bf 88e1 24be 0c42 203e f4ff 1ebe
000000c0: eefd a03c 1fdd 653e 0aa9 6b3e bf9d 593c
000000d0: 5cc3 15bd e371 9c3d 9fe9 60be d46c 823f
000000e0: b1a6 8a40 a105 8740 4da4 d4bd b096 e4c0
000000f0: 58e2 703e 90a9 533d ac2f d53d 28d5 3abd
00000100: 10b2 76bd 0847 73bd dd87 6bbe 8025 113d
00000110: 3ec5 cfbd 10c9 41bc 2f9f 60be 58aa 01bd
00000120: 54db 83bd 98bf 533e 761c 19be

bias f4 [5]
0.23120236 -0.1943757 -0.012906955 0.09001739 -0.115506485
00000000: 50c0 6c3e 6c0a 47be b177 53bc 0a5b b83d
00000010: aa8e ecbd

weight f4 [1, 5, 5]
0.69513816 0.6918098 0.6756874 0.66663784 0.59269685 0.13597144 -0.009112835 -0.12794435
0.10016395 0.017581373 0.40540466 0.55719805 0.5210951 0.8126539 0.81136686 -7.5283494
-2.3765783 1.9760503 4.3422008 5.065027 0.17443784 -0.095211126 -0.099532105 -0.15947506
0.043556288
00000000: 93f4 313f 721a 313f d9f9 2c3f c7a8 2a3f
00000010: fbba 173f 193c 0b3e 004e 15bc d803 03be
00000020: c222 cd3d d006 903c 3391 cf3e 88a4 0e3f
00000030: 7d66 053f 160a 503f bdb5 4f3f 3de8 f0c0
00000040: dc19 18c0 37ef fc3f 4ff3 8a40 b414 a240
00000050: d59f 323e 0dfe c2bd 7dd7 cbbd 6e4d 23be
00000060: 1468 323d

weight f4 [20, 220]
0.119583115 0.054110557 0.076983415 0.06736596 -0.0022861473 -0.013147137 -0.013095595 -0.07145078
-0.011248688 -0.093597084 0.07845327 0.08658207 -0.029563336 0.066059254 0.07803285 0.069789484
0.12157203 0.037038986 0.10801048 0.12342611 0.10685645 0.00945047 0.015199948 0.021156458
0.024907434 -0.017817013 -0.08694834 -0.059331488 -0.044825543 -0.023847407 -0.111911915 -0.008897968
-0.025357014 -0.020789204 0.0725374 -0.014015909 0.10835465 0.07698412 0.13736708 0.14053553
0.08111064 0.118511416 0.06658805 0.110973254 0.10456272 0.11570246 0.067276016 0.06927248
0.18913743 0.1661256 0.028198116 0.08046468 0.17445907 0.19718371 0.1519142 0.06730373
0.13336429 0.07048445 0.032036636 -0.045915898 0.008124043 0.07900141 -0.016426427 -0.038233597
-0.018631697 0.020047264 0.12105429 0.069122344 0.113569394 0.04944441 0.06836843 0.090413414
0.15893747 0.14519086 0.071656644 0.076675676 -0.025231695 0.061762303 0.05258293 0.021510093
0.16786896 0.14933382 0.24225213 0.19642934 0.20236354 0.27876914 0.14844997 0.21888179
0.24994719 0.2073804 0.036701087 0.051201083 -0.04079109 -0.0974398 -0.07779284 0.025107263
0.14282183 0.18859047 0.098726936 0.108227216 0.15981747 0.11288667 0.09081501 0.15484919
0.04948449 0.098436326 0.14186218 0.13743731 0.12971695 0.1169097 0.053746726 0.13879856
0.19537567 0.10048473 0.022906382 -0.005684006 -0.067744754 -0.11476805 -0.069064215 0.013485256
0.15089758 0.083917335 0.04509347 -0.10227513 -0.06474922 0.072689906 0.09701897 0.23847094
0.24687429 0.11988933 0.15702607 0.08704478 0.0010224133 0.07317124 0.051507805 0.07021487
0.15677235 0.17507932 0.24839528 0.2779067 0.18290557 0.1861088 0.25530016 0.2145016
0.19474246 0.33140042 0.22483698 0.23842669 0.16514896 0.2471423 0.21161763 0.14833573
0.15394181 0.11197358 0.21099056 0.17536257 0.20942937 0.23724958 0.20207459 0.20045985
0.12170663 0.08219617 0.05698291 -0.00384336 0.087577574 0.035487805 -0.0038430712 -0.0131000355
-0.023206629 -0.012938914 -0.096825145 -0.11106264 -0.047329668 -0.060629062 -0.07085478 0.017412048
0.0036794937 -0.0032150077 0.06186259 0.02659755 -0.0048504584 -0.025667174 0.012100827 0.048122797
-0.002248185 -0.023099206 -0.06821662 -0.04932604 -0.03282139 0.078081906 0.058081947 0.16704817
0.110088296 0.12688541 0.13445233 0.1750963 0.22601649 0.1226481 0.18114693 0.20059754
0.20666979 0.1891831 0.17664818 0.2186553 0.23949422 0.2126277 0.30013266 0.2137652
0.27204737 0.30006462 0.2540078 0.2946584 0.29255265 0.30508015 0.23078406 0.33724105
0.31330296 0.21278936 0.2969471 0.15569347 -0.06928156 -0.032838274 -0.12191181 -0.20959823
-0.279895 -0.023109466 -0.0032912246 0.08239898 0.1140743 0.07124353 -0.120671324 -0.17309225
-0.15396953 -0.0623003 0.00655231 -0.06288427 -0.24506724 -0.16382669 -0.11128048 -0.08052238
-0.11563731 -0.11164619 -0.1729515 0.0061297766 0.016026467 -0.22269498 -0.12330559 -0.13412125
-0.1073346 -0.1682898 -0.35373282 -0.3399893 -0.3889684 -0.23000209 -0.19568127 -0.2135023
00000000: fee7 f43d 08a3 5d3d 7ba9 9d3d 2af7 893d
00000010: 30d3 15bb 1767 57bc e88e 56bc c954 92bd
00000020: 6b4c 38bc d4af bfbd 1cac a03d f151 b13d
00000030: cf2e f2bc 134a 873d b0cf 9f3d caed 8e3d
00000040: c2fa f83d 31b6 173d 9934 dd3d d4c6 fc3d
00000050: 8ed7 da3d 25d6 1a3c 3409 793c 4f50 ad3c
00000060: ad0a cc3c fcf4 91bc f911 b2bd 9305 73bd
00000070: fd9a 37bd a35b c3bc 1332 e5bd c8c8 11bc
00000080: 83b9 cfbc 1f4e aabc 7d8e 943d fca2 65bc
00000090: 0be9 dd3d daa9 9d3d f5a9 0c3e 8ce8 0f3e
000000a0: 561d a63d 1db6 f23d 515f 883d f245 e33d
000000b0: fb24 d63d 69f5 ec3d 02c8 893d bbde 8d3d
000000c0: 3ead 413e d41c 2a3e bcff e63c abca a43d
000000d0: 66a5 323e 87ea 493e 658f 1b3e 8ad6 893d
000000e0: a690 083e 275a 903d d938 033d 4f12 3cbd
000000f0: b51a 053c 7ecb a13d b790 86bc d59a 1cbd
00000100: 80a1 98bc 293a a43c 50eb f73d 0490 8d3d
00000110: 1297 e83d 3986 4a3d bf04 8c3d ab2a b93d
00000120: 81c0 223e eaac 143e b8c0 923d 2308 9d3d
00000130: b3b2 cebc 78fa 7c3d 3361 573d ef35 b03c
00000140: d7e5 2b3e f7ea 183e f110 783e c624 493e
00000150: 6338 4f3e d4ba 8e3e 4503 183e 8c22 603e
00000160: 28f2 7f3e 875b 543e e153 163d 3ab8 513d
00000170: 8f14 27bd 858e c7bd da51 9fbd bfad cd3c
00000180: e33f 123e dc1d 413e 5931 ca3d 3ba6 dd3d
00000190: 31a7 233e 2031 e73d 38fd b93d c990 1e3e
000001a0: 40b0 4a3d fc98 c93d 5244 113e 5ebc 0c3e
000001b0: 85d4 043e 5a6e ef3d 8725 5c3d 3621 0e3e
000001c0: 8f10 483e f0ca cd3d 2aa6 bb3c e640 babb
000001d0: c3bd 8abd 830b ebbd 8a71 8dbd 43f1 5c3c
000001e0: e584 1a3e dadc ab3d eeb3 383d a075 d1bd
000001f0: 3d9b 84bd 72de 943d e2b1 c63d ba31 743e
00000200: 9dcc 7c3e 8988 f53d 71cb 203e 8944 b23d
00000210: 7f02 863a ceda 953d d9f9 523d d0cc 8f3d
00000220: ee88 203e fe47 333e 555b 7e3e c949 8e3e
00000230: 994b 3b3e 4e93 3e3e b4b6 823e 4fa6 5b3e
00000240: 916a 473e 51ad a93e aa3b 663e 2026 743e
00000250: cf1c 293e df12 7d3e 4bb2 583e 52e5 173e
00000260: eca2 1d3e 6852 e53d e90d 583e 3f92 333e
00000270: a774 563e 8ef1 723e a4ec 4e3e 5945 4d3e
00000280: 5341 f93d 7756 a83d e966 693d e2e0 7bbb
00000290: df5b b33d a95b 113d 09dc 7bbb 88a1 56bc
000002a0: d41b bebc bdfd 53bc 434c c6bd cf74 e3bd
000002b0: c1dc 41bd 2e56 78bd 501c 91bd b6a3 8e3c
000002c0: a923 713b e1b2 52bb a163 7d3d 1be3 d93c
000002d0: 98f0 9ebb f743 d2bc 8c42 463c 691c 453d
000002e0: 4956 13bb 8c3a bdbc 28b5 8bbd 1a0a 4abd
000002f0: b96f 06bd 68e9 9f3d 56e7 6d3d ad0e 2b3e
00000300: f975 e13d 40ee 013e dfad 093e 724c 333e
00000310: de70 673e ed2e fb3d 957e 393e 7169 4d3e
00000320: 3fa1 533e 37b9 413e 43e3 343e 2de7 5f3e
00000330: f93d 753e 13bb 593e fdaa 993e 44e5 5a3e
00000340: cb49 8b3e 12a2 993e 4f0d 823e 77dd 963e
00000350: 76c9 953e 7733 9c3e a852 6c3e dcaa ac3e
00000360: 3f69 a03e 74e5 593e 7309 983e 1c6e 1f3e
00000370: 7ee3 8dbd 6d81 06bd e6ac f9bd eba0 56be
00000380: 664e 8fbe 1050 bdbc 96b1 57bb ccc0 a83d
00000390: c99f e93d 21e8 913d 8722 f7bd 183f 31be
000003a0: 30aa 1dbe 992e 7fbd c3b4 d63b 78c9 80bd
000003b0: e8f2 7abe 2fc2 27be 05e7 e3bd ebe8 a4bd
000003c0: 41d3 ecbd c2a6 e4bd 331a 31be 4bdc c83b
000003d0: f049 833c 270a 64be a487 fcbd 1557 09be
000003e0: 3ed2 dbbd 2954 2cbe 781c b5be 1413 aebe
000003f0: de26 c7be ab85 6bbe ac60 48be 59a0 5abe

bias f4 [20]
0.047112733 -0.0023921803 -0.041295476 0.041287683 0.0014902577 -0.060256463 0.02115652 -0.0039265975
0.03291837 -0.04042869 -0.028793648 -0.013815578 -0.05256155 0.050827578 0.037466526 0.06106233
-0.034066454 -0.06730112 0.0030978173 0.015150391
00000000: 48f9 403d 20c6 1cbb 7225 29bd 461d 293d
00000010: c054 c33a 7bcf 76bd 7050 ad3c b0aa 80bb
00000020: 6ad5 063d 8e98 25bd a8e0 ebbc bc5a 62bc
00000030: c84a 57bd 9430 503d 8076 193d 7e1c 7a3d
00000040: 4489 0bbd 2bd5 89bd c004 4b3b 5839 783c

weight f4 [20]
0.42717144 1.5959108 2.3157291 0.20874529 1.1314394 1.0477872 0.7967677 0.5063824
0.72127306 0.6113645 1.3606539 0.61181945 1.7981491 0.5993644 0.6210831 0.110453755
1.246185 0.71274304 1.3756026 2.776848
00000000: 37b6 da3e ce46 cc3f e834 1440 53c1 553e
00000010: 02d3 903f e41d 863f f8f8 4b3f 47a2 013f
00000020: 5aa5 383f 6282 1c3f e829 ae3f 33a0 1c3f
00000030: c029 e63f f26f 193f 4dff 1e3f 9435 e23d
00000040: fd82 9f3f 5476 363f bf13 b03f e1b7 3140

bias f4 [20]
-0.06773274 -0.8548132 -1.5563428 -0.3891972 -0.315927 -0.82996136 0.9848783 -0.47110397
-0.368462 -0.13278082 -0.7098046 1.0645596 -0.7187107 -0.57659286 -0.49297225 -0.5105977
-0.08599686 -0.713099 0.6868831 1.8587915
00000000: 76b7 8abd 0ad5 5abf 3e36 c7bf db44 c7be
00000010: 2fc1 a1be 5978 54bf fc20 7c3f 8a34 f1be
00000020: 0da7 bcbe b2f7 07be c1b5 35bf 7d43 883f
00000030: 6dfd 37bf 979b 13bf dc66 fcbe 88b6 02bf
00000040: 1f1f b0bd a88d 36bf 92d7 2f3f e1ec ed3f

running_mean f4 [20]
2.226488e+07 -7.6240955e+06 -1.1186244e+07 -1.255314e+07 1.0642584e+06 4.1350848e+06 388417.25 1.8060414e+07
1.0967897e+07 6.748284e+07 -1.3742776e+07 3.5677636e+07 1.4693326e+07 1.9663372e+07 1.4874268e+06 -1.2782903e+07
1.0277644e+07 3.163193e+07 -2.6318665e+06 -3792.3484
00000000: 18de a94b 3fab e8ca 44b0 2acb b48b 3fcb
00000010: 13ea 8149 b362 7c4a 28a8 bd48 3fca 894b
00000020: 595b 274b 9bb6 804c b8b2 51cb 7119 084c
00000030: ce33 604b 0605 964b 1692 b549 370d 43cb
00000040: 0cd3 1c4b 1d55 f14b eaa2 20ca 9305 6dc5

running_var f4 [20]
4.452801e+12 2.3754404e+12 1.0096799e+13 1.8413145e+12 2.8827995e+11 3.8046487e+12 1.7770553e+12 4.0583587e+12
2.4944339e+12 5.5739465e+13 2.4881054e+12 2.9770815e+13 6.0640204e+12 4.492339e+12 1.7254978e+11 1.4160944e+12
1.2117326e+12 1.0399798e+13 2.0600995e+12 1.2075548e+12
00000000: f497 8154 d244 0a54 82ed 1255 735b d653
00000010: a63d 8652 af75 5d54 60e0 ce53 423a 6c54
00000020: f631 1154 6cc7 4a56 a9d3 1054 779c d855
00000030: 797c b054 89be 8254 13b3 2052 e7da a453
00000040: 7210 8d53 4456 1755 c0d3 ef53 f093 8c53

weight f4 [2, 20]
0.027304003 -0.96427536 -1.3115977 -0.06337425 0.7986679 -0.5682384 0.71105707 0.18487011
-0.094977014 -0.24679323 0.94244045 0.69578755 1.1839515 0.088759966 -0.14736882 -0.10484099
-0.9213376 0.44390038 0.97009903 -1.6078012 0.25802168 1.0340952 1.4400332 -0.15570778
-0.6036988 0.54929894 -0.8908861 0.09007988 0.08558851 0.2152393 -0.8963758 -0.7178639
-0.8790013 -0.3200104 0.4777099 0.1170486 0.5526769 -0.30444026 -0.8723046 1.7242966
00000000: a5ac df3c c0da 76bf 6fe2 a7bf 5cca 81bd
00000010: 8075 4c3f 1278 11bf d607 363f 974e 3d3e
00000020: 4f83 c2bd 5db7 7cbe c743 713f 221f 323f
00000030: b98b 973f c9c7 b53d dae7 16be dfb6 d6bd
00000040: c8dc 6bbf e946 e33e 6958 783f 6ecc cdbf
00000050: 6b1b 843e 3b5d 843f 0253 b83f dc71 1fbe
00000060: 018c 1abf db9e 0c3f 1d11 64bf cd7b b83d
00000070: 0749 af3d b167 5c3e e278 65bf eec5 37bf
00000080: 3b06 61bf 67d8 a3be 6496 f43e 2db7 ef3d
00000090: 3c7c 0d3f 98df 9bbe 5b4f 5fbf c0b5 dc3f

bias f4 [2]
1.328306 -1.1622447
00000000: ee05 aa3f 6fc4 94bf

weight f4 [20, 220]
0.07370559 -0.026742956 0.0040415255 0.0107977 0.08876748 -0.032029547 0.03615978 0.06288044
0.01027457 0.050636698 -0.035459314 -0.02449084 0.012231202 0.02462117 0.012481854 0.067694284
-0.025423747 -0.04677701 0.072224006 0.0033885012 0.004022517 -0.028335521 0.058814116 0.038417403
0.021134406 0.02722672 0.049688205 -0.046203054 -0.004437567 0.040301286 0.072533846 0.04171063
0.025518674 0.039863043 -0.049790043 0.04923563 0.07363228 0.056840774 0.048111178 0.014205535
-0.0033653895 -0.027118953 0.081869245 0.056610886 -0.021726519 0.030411428 0.008471323 0.058865536
0.0075839665 0.027844658 0.048143815 -0.033082075 0.0820758 0.08948211 -0.02017929 0.041441277
0.05047678 0.013377389 -0.02998858 -0.009977776 0.037553877 0.055402316 0.010484632 0.01651073
0.025176443 0.033917665 0.07257305 0.06115936 0.033830404 0.06925768 -0.0037783575 0.057404906
0.07574899 -0.0005748902 -0.02668138 0.032016557 -0.008023172 0.05822137 0.034124315 0.050157897
0.016711002 -0.0011370098 0.07165998 0.03370894 -0.024149828 0.05973634 0.09372575 -0.008293028
-0.006484481 0.0067302654 0.025606528 0.0054487055 0.08149901 0.08184709 0.039484818 0.04670092
-0.016373599 0.08049623 0.06820122 0.037090894 0.07380462 0.027277326 0.102224335 0.022128139
-0.014763021 0.0060998495 0.016702278 -0.0059329616 0.079297766 0.026333418 0.04109769 0.10753656
0.006554201 0.09354343 0.0650238 0.07309457 0.028761404 0.068340585 0.082743 0.09637164
0.051175952 0.047170933 0.018357541 0.052358367 -0.027106255 -0.0012499599 0.027214792 0.103659764
0.030901348 0.02621468 0.081590295 0.07974844 0.09430527 0.04717557 0.07214631 -0.023783572
0.04047374 -0.009115492 -0.02251955 0.07700146 0.073089406 0.01910561 0.078719616 0.014469801
-0.021470422 0.029559312 -0.0050516804 0.108927555 0.05232448 -0.004356596 0.008764876 0.0066285785
0.016487397 0.08634611 -0.022547102 0.085426375 0.06142525 0.054253846 0.09462043 0.015835913
0.0799233 0.051472846 0.08672788 -0.01291328 0.003870909 0.059191767 0.0016678305 0.00420253
0.017719256 0.05272608 -0.031461593 0.0055754557 0.08135453 -0.03445485 0.014310706 0.022566654
-0.0033483084 0.003888319 -0.0034983817 0.030013109 0.09297071 -0.02214728 -0.007232155 -0.0045280294
-0.035694104 0.07514026 -0.028786091 -0.022755738 -0.014707962 0.011738183 -0.031232392 -0.008139321
0.013080427 0.027040614 0.028633798 0.028109886 0.017603725 0.01281492 0.06576776 0.034092527
0.05131109 0.0067696325 0.014149914 -0.019572578 0.03926525 0.0338125 -0.03898809 -0.0028182701
0.07452534 0.041715164 0.012470542 0.078192316 0.034511577 0.06237449 0.04753205 -0.024861543
0.015514928 -0.050456192 -0.028515475 -0.027770871 -0.02170435 0.051369064 0.0007217023 0.01998798
-3.747987e-05 0.029254327 0.00029435288 0.07622919 0.10900459 0.015766185 0.06253831 -0.015932925
-0.007371288 0.08788287 0.07885632 0.0542769 0.052671414 0.08518829 0.110187404 0.056250338
0.05027776 0.07917554 0.016386012 0.121414 0.016715404 0.06508108 0.0687088 0.031584535
0.025687685 0.026677813 0.030349921 0.080164455 0.09685336 0.048386008 0.020946825 -0.006055552
00000000: f5f2 963d 0b14 dbbc c66e 843b d6e8 303c
00000010: b9cb b53d 6a31 03bd 471c 143d 76c7 803d
00000020: ac56 283c 6d68 4f3d c93d 11bd 04a1 c8bc
00000030: 6165 483c 56b2 c93c b180 4c3c 4da3 8a3d
00000040: 7645 d0bc 4099 3fbd 2eea 933d 9e11 5e3b
00000050: 51cf 833b e51f e8bc 12e7 703d 915b 1d3d
00000060: 1022 ad3c 920a df3c dc85 4b3d 6a3f 3dbd
00000070: 0369 91bb f612 253d a08c 943d c4d8 2a3d
00000080: 8a0c d13c 6e47 233d a5f0 4bbd 4dab 493d
00000090: 85cc 963d dfd1 683d 3a10 453d 55be 683c
000000a0: de8d 5cbb 9128 debc 10ab a73d d1e0 673d
000000b0: d0fb b1bc 6321 f93c 4ecb 0a3c fd1c 713d
000000c0: ec82 f83b 7b1a e43c 7332 453d 1281 07bd
000000d0: 5b17 a83d 6642 b73d 0a4f a5bc 54be 293d
000000e0: bdc0 4e3d d62c 5b3c 9caa f5bc d379 23bc
000000f0: 18d2 193d 8aed 623d bcc7 2b3c 8341 873c
00000100: d43e ce3c 40ed 0a3d 2ea1 943d 3d82 7a3d
00000110: c091 0a3d f8d6 8d3d 529e 77bb 6821 6b3d
00000120: 4922 9b3d 3ab4 16ba e992 dabc cb23 033d
00000130: 9f73 03bc 8879 6e3d f0c5 0b3d 5e72 4d3d
00000140: 83e5 883c b807 95ba 78c2 923d 6312 0a3d
00000150: dcd5 c5bc 18ae 743d 49f3 bf3d 7bdf 07bc
00000160: c57b d4bb 8f89 dc3b c8c4 d13c 0e8b b23b
00000170: f4e8 a63d 729f a73d d5ba 213d 7749 3f3d
00000180: ed21 86bc 35db a43d 15ad 8b3d 9fec 173d
00000190: e026 973d b374 df3c fe5a d13d 1246 b53c
000001a0: 99e0 71bc 3fe1 c73b 37d3 883c 4a69 c2bb
000001b0: de66 a23d 2eb9 d73c 0d56 283d 213c dc3d
000001c0: 9fc4 d63b b393 bf3d 332b 853d 9bb2 953d
000001d0: 099d eb3c 26f6 8b3d 2975 a93d 7f5e c53d
000001e0: e09d 513d 4f36 413d 8e62 963c ba75 563d
000001f0: f00d debc b2d5 a3ba 8ef1 de3c 924b d43d
00000200: d324 fd3c 2bc0 d63c d018 a73d 2653 a33d
00000210: 1f23 c13d 2c3b 413d 72c1 933d c4d5 c2bc
00000220: cbc7 253d 2559 15bc eb7a b8bc f1b2 9d3d
00000230: e6af 953d 5e83 9c3c c037 a13d bf12 6d3c
00000240: bde2 afbc 5f26 f23c 9188 a5bb 6915 df3d
00000250: 3252 563d c7c1 8ebb 8e9a 0f3c 8c34 d93b
00000260: 9410 873c 3bd6 b03d b3b4 b8bc 06f4 ae3d
00000270: 0b99 7b3d 4839 5e3d 5bc8 c13d 51ba 813c
00000280: d4ae a33d 31d5 523d 639e b13d 3992 53bc
00000290: 14af 7d3b 1173 723d 1b9b da3a 60b5 893b
000002a0: f927 913c 4df7 573d dfdd 00bd 50b2 b63b
000002b0: 349d a63d 8720 0dbd 7477 6a3c b4dd b83c
000002c0: 4b6f 5bbb 2bd3 7e3b 1b45 65bb 0dde f53c
000002d0: 6d67 be3d 366e b5bc b7fb ecbb dd5f 94bb
000002e0: fb33 12bd 23e3 993d cfd0 ebbc 3e6a babc
000002f0: aaf9 70bc 8251 403c 13db ffbc c95a 05bc
00000300: 4a4f 563c 4784 dd3c 6d91 ea3c b446 e63c
00000310: b035 903c acf5 513c 3fb1 863d 9ba4 0b3d
00000320: 942b 523d cbd3 dd3b 0ad5 673c ac56 a0bc
00000330: 99d4 203d fa7e 0a3d fab1 1fbd bab2 38bb
00000340: bea0 983d 85dd 2a3d 3f51 4c3c 4b23 a03d
00000350: 035c 0d3d 657c 7f3d f8b0 423d 6faa cbbc
00000360: 5332 7e3c 27ab 4ebd 4999 e9bc bd7f e3bc
00000370: 52cd b1bc 5e68 523d 9f30 3d3a d5bd a33c
00000380: b433 1db8 c5a6 ef3c 6053 9a39 0d1e 9c3d
00000390: cc3d df3d 1628 813c 1614 803d c485 82bc
000003a0: d88a f1bb effb b33d 6c7f a13d 7451 5e3d
000003b0: fbbd 573d 3377 ae3d efa9 e13d c166 663d
000003c0: 0df0 4d3d c926 a23d f53b 863c e7a7 f83d
000003d0: beee 883c 3b49 853d 33b7 8c3d c95e 013d
000003e0: fb6e d23c 6e8b da3c 66a0 f83c 432d a43d
000003f0: 0e5b c63d 6830 463d ad98 ab3c a76d c6bb

bias f4 [20]
0.052422732 -0.029426705 0.034557268 0.008387625 -0.0052691214 0.06510004 -0.06185087 -0.006860595
-0.0008601472 0.059278153 0.0011550263 -0.048506334 -0.05473633 -0.04614927 0.042730846 0.012919508
-0.05969324 0.055953518 -0.05810245 0.004024096
00000000: 38b9 563d 4610 f1bc ec8b 0d3d 406c 093c
00000010: 98a8 acbb 2b53 853d 5657 7dbd d8ce e0bb
00000020: 807b 61ba a6cd 723d 4064 973a 94ae 46bd
00000030: 3433 60bd 0407 3dbd 8a06 2f3d 58ac 533c
00000040: e680 74bd 842f 653d d6fc 6dbd 90dc 833b

weight f4 [20]
0.82179654 0.8302366 0.50092125 0.8065272 0.94551975 0.819058 0.83986455 0.87161624
0.67093694 0.81048477 0.5605263 0.47213918 0.49151567 0.8111865 0.8277326 0.5096283
0.8926732 0.574881 0.22832291 0.85853654
00000000: 4261 523f 638a 543f 603c 003f 9178 4e3f
00000010: 950d 723f c9ad 513f 5d01 573f 3e22 5f3f
00000020: 86c2 2b3f ee7b 4f3f a77e 0f3f 3abc f13e
00000030: f1a7 fb3e eba9 4f3f 49e6 533f 0077 023f
00000040: 3b86 643f 672b 133f 7bcd 693e 0dc9 5b3f

bias f4 [20]
-0.4032746 -0.37289482 0.5567104 -0.40445846 -0.07170474 -0.39326277 -0.3762654 0.120994
-1.1697916 -0.38369247 -0.8366985 0.73126036 -0.91802126 -0.39489734 0.07089548 -0.8729107
-0.14249371 -0.9933447 0.72818786 -0.24367754
00000000: 027a cebe 12ec bebe 9384 0e3f 2e15 cfbe
00000010: efd9 92bd bd59 c9be dca5 c0be b4cb f73d
00000020: bbbb 95bf 5773 c4be df31 56bf e133 3b3f
00000030: 7103 6bbf fc2f cabe a631 913d 1377 5fbf
00000040: dfe9 11be d74b 7ebf 856a 3a3f 9b86 79be

running_mean f4 [20]
8.3164155e+06 8.393413e+06 -1.4803558e+07 7.9427145e+06 14761.249 2.8671928e+06 -162608.28 -1.3206833e+07
1.4741276e+07 1.296571e+06 1.0224624e+07 -1.2780314e+07 1.5392691e+07 1.2582013e+07 -7.583088e+06 1.2057558e+07
7.7611435e+06 1.2600186e+07 1.4961145e+07 6.4681955e+06
00000000: ffcb fd4a c512 004b 66e2 61cb 7564 f24a
00000010: ffa4 6646 e3ff 2e4a 12cc 1ec8 3185 49cb
00000020: 1cef 604b d845 9e49 f003 1c4b 1a03 43cb
00000030: b3df 6a4b 7dfc 3f4b e06a e7ca d6fb 374b
00000040: efd9 ec4a 7a43 404b f949 644b c764 c54a

running_var f4 [20]
6.9277385e+11 8.8772483e+11 2.3867703e+12 7.763427e+11 6.988535e+09 9.333835e+10 3.0858414e+09 2.5864045e+12
2.8564594e+12 3.6389315e+10 1.9262753e+12 2.3703687e+12 2.6507186e+12 1.9555906e+12 4.196782e+11 1.7253368e+12
8.8662514e+11 2.2063617e+12 2.7987469e+12 3.8373894e+11
00000000: 8a4c 2153 86b0 4e53 a6ed 0a54 a1c1 3453
00000010: 4a46 d04f 32db ad51 34ee 374f 6e8c 1654
00000020: 9044 2654 8e8f 0751 7a3f e053 3ff9 0954
00000030: c94a 1a54 24a9 e353 8a6d c352 0bdb c853
00000040: fa6e 4e53 5a6d 0054 94e8 2254 3fb1 b252

weight f4 [2, 20]
-0.017128268 -0.06294575 0.02794501 -0.19122301 -0.29172957 -0.1564461 -0.24090701 0.04070098
-0.02072228 0.09757692 0.08382202 -0.21691713 -0.15492837 -0.13827758 -0.12817556 -0.14822218
-0.16523997 -0.21625383 -0.15841712 -0.18660691 -0.0514912 0.007824292 0.14092246 0.036454313
0.29493073 -0.027110478 0.15173396 -0.17954908 1.5765065 0.018713903 0.8579238 0.4950386
1.0333121 -0.020191599 0.012541894 0.86430186 0.1869379 1.3285173 0.6776871 0.024621857
00000000: 9550 8cbc b4e9 80bd efec e43c f7cf 43be
00000010: 945d 95be 6833 20be 54b0 76be 12b6 263d
00000020: c5c1 a9bc 69d6 c73d e1aa ab3d 861f 5ebe
00000030: 8ba5 1ebe a398 0dbe 7440 03be 8ec7 17be
00000040: ab34 29be a571 5dbe 1938 22be e215 3fbe
00000050: 70e8 52bd 7631 003c fa4d 103e 1e51 153d
00000060: 2901 973e cb16 debc 2660 1b3e b7db 37be
00000070: f7ca c93f e64d 993c e5a0 5b3f b375 fd3e
00000080: 9243 843f da68 a5bc 847c 4d3c e342 5d3f
00000090: a66c 3f3e db0c aa3f e77c 2d3f c7b3 c93c

bias f4 [2]
-0.21794355 2.5596223
00000000: 982c 5fbe dad0 2340
