jiont/expr/0.9658-0.001068/joint.pth (torch_old, 61958 bytes, 19 tensors)

weight f4 [5, 3, 5]
000000 50 fe f2 3c 08 0b 34 3e 20 c7 6c bd c0 6d 90 3c
       0.029662281 0.17582333 -0.057807088 0.017630458
000010 6a e4 6e 3e 8c 51 53 be 1c 1b ad bd 84 d0 b6 3d
       0.2332932 -0.20636576 -0.08452436 0.0892649
000020 5e 0e 07 3e c0 c7 9e 3d 40 48 81 be e6 14 81 be
       0.13189074 0.07752943 -0.25250435 -0.25211257
000030 e0 4b 30 bc 38 6c fa 3d 9a 13 14 3e f4 48 fe bc
       -0.0107602775 0.12227672 0.14460602 -0.031040646
000040 6b cc 03 be f5 70 36 3d ef c6 2f be 19 a7 cd bd
       -0.12870948 0.044541318 -0.17165731 -0.10041637
000050 e8 ad 23 be cd cf e6 3d 1c de 77 3e a8 4f 4c be
       -0.15984309 0.112701036 0.24205822 -0.19952261
000060 c9 32 b7 bd 1a 1a 42 bf e1 ee a3 bf 4c 0b 70 bf
       -0.089452334 -0.7582108 -1.2807275 -0.9376724
000070 7e 8e 8f bf 59 d4 9d bf 06 e0 7b 3e d0 8e 7e bc
       -1.121536 -1.2330428 0.24597177 -0.015536979
000080 5e e0 4a be 00 11 b3 3c 68 ef a8 3d f2 73 9a bd
       -0.19812152 0.021858692 0.08248788 -0.07541646
000090 c2 50 15 3e 5c 3c 12 be d8 62 36 3d ee 5c 19 3e
       0.14581588 -0.14280838 0.04452786 0.14976856
0000a0 72 c3 1d be 04 9e 75 bd 1c 37 2d be 28 25 3c 3e
       -0.15406588 -0.05996515 -0.16915554 0.18373549
0000b0 ce d4 3f be 2d d1 b8 bc 0d 23 90 3b 9b c2 e9 bd
       -0.18733522 -0.02256068 0.0043987096 -0.11414071
0000c0 f8 d7 fc 3d f8 09 e3 3d e5 52 d4 bc a4 32 2f be
       0.1234588 0.11085886 -0.025918433 -0.17109162
0000d0 ce df 6d 3e 39 f5 b0 3d b6 ef 29 be 18 60 3d bd
       0.23229906 0.086405225 -0.16595349 -0.04623422
0000e0 d7 05 b1 bd 08 08 12 be 84 17 34 3e 2c 40 97 bd
       -0.08643692 -0.14260876 0.17587095 -0.07385287
0000f0 31 ab f5 bd 64 1f 73 3d eb e9 e2 3c a8 e2 2f be
       -0.11995543 0.05935611 0.027699431 -0.17176306
000100 d8 aa 33 3d 79 77 5c 3e ce 32 a2 bc 54 06 e9 3b
       0.0438641 0.2152995 -0.019799616 0.00711135
000110 2a e0 8d 3d b0 fe 69 3e 65 bd 88 c0 2b da 58 40
       0.069275215 0.22851062 -4.2731194 3.388316
000120 d2 17 b3 40 ab cd 2f 40 e5 65 9b c0
       5.5966578 2.746928 -4.8561883

bias f4 [5]
000000 c4 ec f0 3d a8 9f 19 3e f4 82 e2 3d 83 51 56 be
       0.117639095 0.1500231 0.110601336 -0.20929532
000010 00 bf 37 bd
       -0.044859886

weight f4 [1, 5, 5]
000000 98 2d db 3c 71 08 12 3e 87 b1 47 3e 08 ec 11 bd
       0.02675514 0.14261033 0.19501315 -0.035625488
000010 be 88 27 be 04 0d 92 3f 43 cf 6d 3f ac 62 71 3f
       -0.16360757 1.1410222 0.9289438 0.94291186
000020 9d aa a6 3f f2 df ac 3f ec b4 09 be e7 2c ca bd
       1.3020817 1.3505843 -0.13447922 -0.09871846
000030 f9 ed 46 3e 3d 1a 1b be 67 8a c8 bd 55 42 31 3e
       0.19426717 -0.15146728 -0.09792023 0.1731046
000040 ae 6d 45 bd ce 5d 6e 3d 72 90 2f 3e 27 28 3e 3e
       -0.0482003 0.058194928 0.17144945 0.18570004
000050 79 d0 46 c1 e6 b5 ae c0 72 35 eb 3f 4b 9b f9 40
       -12.425897 -5.4597044 1.8375685 7.8002067
000060 da 8d 22 41
       10.159632

weight f4 [20, 220]
000000 1a 66 5d be e6 48 01 3e a2 5f 21 3e 1e 4e 8d 3e
       -0.2162098 0.12625465 0.15759137 0.2759866
000010 d1 58 e7 3d 64 72 4f 3d 85 40 f5 bd 8d 47 35 be
       0.11296237 0.0506462 -0.11975197 -0.17703076
000020 d0 6f 75 be 37 a4 5d be 12 e8 38 be d3 f3 81 be
       -0.23968434 -0.21644674 -0.18057278 -0.25381336
000030 ef 6e 8b be 03 6e cd be 62 1b b8 be 17 1d 8c be
       -0.27233073 -0.40122995 -0.3595839 -0.27365944
000040 23 6f 52 bd b0 07 9a 3c c0 d3 ee bc 3f a2 81 bd
       -0.05137552 0.018802494 -0.029153705 -0.06329774
000050 b7 9b be bc c1 6e 4f bc f9 3b e3 3d 43 36 21 3e
       -0.02326761 -0.012660683 0.11095423 0.15743355
000060 49 b8 de 3d 8b d9 3c 3e 5e 7c 2d 3e 35 7c 42 3e
       0.10874993 0.18442361 0.16941974 0.18992694
000070 aa 2b 12 3e b1 c5 dc 3d 9b 82 2c 3e a7 3e 6b 3e
       0.14274469 0.10779894 0.16846697 0.22973119
000080 af dd 41 3e c5 38 bc bb c9 7f 05 be 04 6f 93 be
       0.18932222 -0.005744072 -0.13037027 -0.28795636
000090 e8 79 9f be 3d e9 35 be c2 78 2b be 5b aa eb bd
       -0.31147695 -0.17764755 -0.16745284 -0.11507102
0000a0 8d e4 86 bd 39 24 ec bd bd 21 94 3d ae a2 3c 3d
       -0.06586561 -0.115303464 0.072329976 0.04605358
0000b0 e1 3b ee bc a6 eb f0 bd a0 90 87 3c 67 2f 1e 3e
       -0.029081287 -0.11763696 0.016548455 0.1544777
0000c0 e8 78 21 3e 3c 54 f6 3d 03 ce 1e 3e 15 de a0 3e
       0.15768778 0.12027785 0.15508275 0.31419435
0000d0 2d 82 ca 3e 0e fa 84 3e cb 49 04 3e 49 33 04 3e
       0.3955244 0.25972027 0.12918775 0.12910189
0000e0 70 e8 b8 3e a2 c8 ec 3e 41 a6 d5 3e 51 04 1d 3e
       0.36114836 0.4624682 0.41728404 0.15333678
0000f0 5d 75 9a 3d 76 ae 19 3e 61 14 4e 3e 15 7d bb 3e
       0.075419165 0.15007958 0.20124961 0.36618868
000100 aa 8a a4 3e b2 80 bb 3d b8 28 e5 3d 31 a3 63 3e
       0.32137042 0.09155406 0.11189407 0.22230221
000110 ef 13 42 3e f3 3e 45 3e 69 30 89 3d ae 71 6b bd
       0.18952917 0.19262294 0.06698687 -0.05748146
000120 da 9f db bd e4 e7 0b be 1c ac 0d be 43 51 cb bd
       -0.10723849 -0.13662678 -0.13835186 -0.09927609
000130 92 84 96 3d d6 f0 91 3d cc e1 fe bd 5f f6 7f bd
       0.073495045 0.07126014 -0.12445411 -0.062490817
000140 1e a7 11 be 1d e6 3c be 9c 5c b0 be e6 76 85 be
       -0.14223906 -0.18447156 -0.34445655 -0.26067275
000150 72 bb 2a be f0 87 27 3d a4 d8 f4 3c 7d 8f 0c be
       -0.16673067 0.040901124 0.029888459 -0.13726611
000160 bc 2a 7d be 8d be 44 be 40 55 0e 3e fd 1b e6 3e
       -0.24723333 -0.19213314 0.13899708 0.44943228
000170 14 80 08 3f 16 4e 5a 3e ee 66 12 be d0 54 08 be
       0.5332043 0.2131885 -0.14297077 -0.13313603
000180 dd 96 d8 bd 12 ab 38 be 07 3b a2 be 1b d0 99 be
       -0.1057565 -0.18034008 -0.3168566 -0.30041584
000190 1e c1 67 be 48 18 40 be e1 63 2f be b2 9c 86 be
       -0.22632262 -0.18759263 -0.17127945 -0.26291424
0001a0 a2 ec 71 be d4 d0 75 be 9c a5 94 be de 74 7e be
       -0.23625425 -0.24005443 -0.290326 -0.24849269
0001b0 16 e3 41 be 33 70 9d be 94 6d 9a be 94 cd 72 be
       -0.18934283 -0.30749664 -0.30161726 -0.23711234
0001c0 14 a0 78 3d 28 f4 53 3e b4 47 ad 3e 61 2c 11 3f
       0.060699537 0.20698607 0.33843768 0.5670834
0001d0 8d d3 47 3f d4 fe 16 3f f4 25 32 3d 53 93 33 bf
       0.78057176 0.58982587 0.043493226 -0.70146674
0001e0 75 db 53 bf 37 ad e9 be 41 80 5c 3e 08 fd a4 3e
       -0.8275674 -0.45639965 0.215333 0.32224298
0001f0 1a f3 9c 3d 4c ee e3 be 6a 97 15 bf 8c 46 95 be
       0.076635554 -0.44517744 -0.58434165 -0.29155385
000200 03 2f cd bb d9 83 03 3e f8 cc 6f 3e 13 b7 87 3e
       -0.0062617077 0.12843265 0.23418033 0.26506862
000210 27 af dc 3e 95 48 c5 3e ac e5 e5 3d 47 c0 dd bd
       0.4310238 0.38531938 0.11225447 -0.108276896
000220 35 6b 32 be 02 e0 08 be 22 08 be bd 30 0a 01 be
       -0.17423709 -0.13366702 -0.09278895 -0.12601542
000230 82 96 59 bd ad 47 45 3d 46 9b 01 3d f4 54 6c bd
       -0.05312205 0.04816406 0.03164222 -0.057698205
000240 25 88 b8 bd a8 de a0 3d 5a e7 92 3d db dc af 3d
       -0.090103425 0.07854968 0.07173033 0.08587047
000250 9a e3 33 be 3e fc 7b be cf 7d 86 be ef 1d 1c be
       -0.17567292 -0.24607942 -0.2626786 -0.15245794
000260 da 4b 37 be 17 6d 8f be 4d b4 7b be 57 c9 47 be
       -0.17900029 -0.28012916 -0.24580498 -0.19510399
000270 c5 68 7d bd 3c 22 2f bc 87 55 7d bd 17 89 ae bd
       -0.061867494 -0.010689314 -0.061849143 -0.085222416
000280 8c 48 18 be 49 e3 b6 bd 8d 60 8d 3d 87 5c b4 3c
       -0.14871424 -0.0893007 0.06903181 0.022016777
000290 c7 95 c8 bd 46 fc 98 bc 3a 44 94 3c 98 e5 24 3e
       -0.09794193 -0.01867498 0.01809894 0.16103208
0002a0 16 f0 84 3d 88 4c eb bc b4 0c 5a 3c 05 33 82 3d
       0.06491105 -0.028723016 0.013308693 0.063573875
0002b0 3e 2c ac 3d 5a 09 ce bd d5 ab 1b be 4a 14 31 be
       0.08406876 -0.100603774 -0.15202267 -0.17292896
0002c0 5d dd 5f be 0d b6 ae bd 66 b5 f4 3b 00 90 03 3d
       -0.21861787 -0.08530817 0.0074679134 0.03211975
0002d0 e9 14 de 3b 95 fe 85 3c f1 ba 07 be 47 c7 0c be
       0.006777395 0.016356746 -0.13254906 -0.13747893
0002e0 9c d9 ba bd dc 98 13 be a4 11 39 be 86 73 c3 be
       -0.09123537 -0.1441378 -0.18073136 -0.38174075
0002f0 bb a5 09 bf 77 30 cb be df 06 a9 be fe 03 b5 be
       -0.5376851 -0.39685413 -0.33013055 -0.35354608
000300 7a b2 bb be 64 8d dd be 7a 6d d8 be 47 0a cd be
       -0.36659604 -0.43271935 -0.42271024 -0.40046903
000310 0c 4f a4 be 6e 82 ac be b7 64 96 be ab bb d2 be
       -0.32091558 -0.3369326 -0.29373714 -0.41158804
000320 45 0c a5 be dc 22 a6 be fd 4a a7 be 48 0b 65 be
       -0.32235923 -0.3244847 -0.326744 -0.22367585
000330 ef 7d 83 be 82 3e c7 be 89 b9 da be 93 43 b4 be
       -0.25682017 -0.38914877 -0.42719677 -0.35207805
000340 7a 85 a4 be 15 b8 a4 be 5f ff fb be a2 97 05 bf
       -0.32133085 -0.32171693 -0.4921827 -0.521845
000350 ed 48 e8 be d1 cf 33 be d7 d0 d2 bd 46 ff 3d be
       -0.45368138 -0.17559744 -0.10293739 -0.1855441
000360 98 5c 2f be b4 e9 a8 bd e6 a7 ce bc 00 86 8e bc
       -0.17125165 -0.082477 -0.025226545 -0.01739788
000370 23 c4 40 be 14 c0 82 be 49 e5 8a be fd bb 6c be
       -0.1882482 -0.2553717 -0.27128056 -0.23118587
000380 9c 43 44 bd 3d dc 28 bd 70 13 a7 3d b0 9a a9 3d
       -0.04791604 -0.04122566 0.08158004 0.082814574
000390 b0 96 9c 3c f1 91 08 3e f4 d9 e7 3d fe 0a c3 3d
       0.019114822 0.13336922 0.11320868 0.09523581
0003a0 41 61 53 bc 98 97 95 bd 71 d5 07 3d dc 1d aa bc
       -0.012901605 -0.07304305 0.033162538 -0.020766191
0003b0 88 4f 65 3c af 30 e4 3d cc ae ba 3a 8f fe d9 3d
       0.0139960125 0.11142098 0.0014242767 0.10644256
0003c0 56 40 22 3c 2f 1e a6 3d c7 c1 4d 3e a1 00 1d 3e
       0.009903034 0.08111226 0.20093451 0.15332271
0003d0 54 8a 1b 3e e7 bd 23 3e c3 89 6a 3e 62 49 60 3e
       0.15189487 0.15990411 0.22904114 0.21902993
0003e0 8d 54 8e 3e e1 a8 49 3e 76 72 a6 3e 35 5d 8a 3e
       0.27798882 0.19693328 0.32509202 0.27024236
0003f0 11 dd 90 3d 27 67 b6 3d 7b 9a af bc 46 e1 b6 bd
       0.07073415 0.089063935 -0.021435967 -0.08929686

bias f4 [20]
000000 a0 42 60 3b ad 89 0a bd 40 de e9 3b 2d 38 7c bd
       0.00342194 -0.033822704 0.00713709 -0.06157701
000010 bc 72 2f 3d 62 ab 3c bd 80 b2 52 3b 8e ad 35 bd
       0.04283403 -0.04606188 0.0032149851 -0.044354968
000020 44 0c e7 3c 3e d8 cc bc 8e fe 9c bc e9 dc 79 bd
       0.02820409 -0.025005456 -0.01916435 -0.061001692
000030 16 23 6d 3d 8c 9f 91 3c 88 c7 2a 3d 14 49 9d 3c
       0.05789479 0.017776273 0.041694194 0.019199885
000040 5c a8 19 3d c0 bb 26 bb f6 7d e7 bc 9a 58 ae bc
       0.037514076 -0.0025441498 -0.028258305 -0.021282483

weight f4 [20]
000000 e7 7f b6 3f d5 57 88 3f b3 b4 a2 3f 79 3b 8c 3f
       1.4257783 1.0651804 1.2711395 1.095565
000010 93 c9 42 3f ad 16 8d 3e 20 d2 89 3f 0f ed 9c 3f
       0.7608883 0.27556363 1.076725 1.2259845
000020 bf 38 06 40 3b 06 1c 3f 85 ce 2f 40 bd f0 c9 3f
       2.0972135 0.60947007 2.74698 1.5776592
000030 7c 9b 1a 40 43 90 dc 3f 20 f2 28 bb b0 45 25 40
       2.41574 1.7231525 -0.0025779083 2.5823784
000040 9e c6 02 40 26 b1 e2 bd ee 34 c1 3f 22 c5 1a 3f
       2.0433726 -0.11068945 1.5094278 0.6045705

bias f4 [20]
000000 6c d7 60 bf 75 e8 8a bf 08 28 5e bf 28 a6 4a bf
       -0.8782871 -1.085219 -0.8677983 -0.79159784
000010 85 b2 13 bf 6b 01 51 bf 14 16 11 3e 10 e7 cc be
       -0.57694274 -0.8164279 0.14168578 -0.40020037
000020 16 cc e6 be 85 14 3c bf 56 c7 fe bf ad 7c ff be
       -0.4507758 -0.7346881 -1.9904583 -0.49899808
000030 cb 73 91 bf c8 a5 d3 3f c9 b5 1a be 68 0c ca 3f
       -1.1363462 1.6534967 -0.15108408 1.5785036
000040 f6 ea a2 bf bd 0d b5 be f5 2d 90 3f 58 fa a5 3d
       -1.2727954 -0.35362044 1.1264025 0.0810439

running_mean f4 [20]
000000 78 bd 48 cb 17 69 00 4c f3 79 20 4c 6d d4 2f 4c
       -1.3155704e+07 3.3662044e+07 4.2067916e+07 4.6092724e+07
000010 48 11 a0 4b eb 44 68 4a 54 67 1d 4b 54 5b 8e cb
       2.0980368e+07 3.8054988e+06 1.0315604e+07 -1.8658984e+07
000020 ba ac 4c 4b 88 e6 da 4b ec 69 3b cb 88 db 00 4c
       1.3413562e+07 2.8691728e+07 -1.2282348e+07 3.377923e+07
000030 77 0a ef 4b b3 ac c3 4a a6 58 63 cb 1a 45 94 4a
       3.1331566e+07 6.4118655e+06 -1.4899366e+07 4.858509e+06
000040 0d 60 84 4b aa c4 f6 cb 0d f3 d7 49 f7 19 61 4d
       1.7350682e+07 -3.2344404e+07 1.7690576e+06 2.3603595e+08

running_var f4 [20]
000000 e6 cb 15 54 b9 05 e3 54 ba 01 d0 55 f5 b5 a7 55
       2.573484e+12 7.8004287e+12 2.858823e+13 2.3049993e+13
000010 fd a1 d8 54 dc b0 d1 54 db 9d 53 54 d6 6e d2 54
       7.443445e+12 7.204923e+12 3.635546e+12 7.230421e+12
000020 57 83 e8 53 4e 1d 07 55 88 e3 95 55 82 69 65 55
       1.9972719e+12 9.284996e+12 2.060056e+13 1.5765082e+13
000030 12 0b bc 55 e4 f7 d9 53 87 a5 26 54 e2 b3 68 54
       2.5844467e+13 1.8723336e+12 2.8629666e+12 3.9978014e+12
000040 bd b1 91 54 4f 54 34 55 a0 80 94 54 15 6a 13 58
       5.0060177e+12 1.2392137e+13 5.102505e+12 6.483353e+14

weight f4 [2, 20]
000000 4a f8 67 3f 9a c3 48 3f 70 f3 ca 3e 2d 03 8a be
       0.90613234 0.78423464 0.39638853 -0.26955548
000010 bc 3a ba bd 66 48 33 3f fa 1b de be 11 d2 19 bf
       -0.09093234 0.70032346 -0.4338072 -0.6008616
000020 74 8a a4 bf f7 b8 ad 3e f0 32 db bf 44 ef bc be
       -1.2854753 0.3393018 -1.712492 -0.36901295
000030 8e 05 79 3f a7 5d 9b 3f e1 1d 40 3e 6e 84 af bf
       0.972741 1.2137955 0.18761398 -1.3712289
000040 a8 13 91 3f ab c6 91 3e 61 c3 87 3f b0 8b b5 3e
       1.1334124 0.28471884 1.06065 0.35458136
000050 5f fa 18 bf a2 12 0e bf bb ba 07 bf bf 9d 78 3e
       -0.59757036 -0.5549718 -0.53019303 0.24278925
000060 63 f3 a9 3e 48 5c dd be 3a c1 1f 3f 25 c4 fa 3e
       0.33193502 -0.43234468 0.62404215 0.4897777
000070 fe e7 86 3f fe 78 9e be 5d 61 be 3f ba c1 2c 3f
       1.0539548 -0.30951685 1.4873463 0.67483103
000080 5f 33 76 bf 66 2c a7 bf a5 bb 56 3d 0a 81 bb 3f
       -0.96172136 -1.3060424 0.052425046 1.4648755
000090 76 7f 69 bf 32 da 5f be cc dc 8a bf cc ba 2a 3d
       -0.91210115 -0.21860579 -1.0848632 0.04168205

bias f4 [2]
000000 69 41 11 bf 6c 69 ca 3e
       -0.5674043 0.39533556

weight f4 [20, 220]
000000 5d 0e 02 3e 83 1c ff 3d a0 7b cd 3d 0a f6 1d 3e
       0.12700792 0.1245661 0.10033345 0.15425888
000010 03 9f 95 3d ff ba 24 3e 6e 2f fe 3d 9e 6c 31 3e
       0.0730572 0.16086958 0.1241139 0.1732659
000020 b8 51 a1 3d f2 e5 25 3e d4 5e b1 3d 19 dd 02 3e
       0.07876915 0.16200998 0.08660665 0.12779655
000030 d8 c3 fc 3d d2 64 a2 3d 74 17 fd 3d d7 e8 25 3d
       0.12342042 0.07929386 0.12357989 0.040505257
000040 6d 83 1a 3e d3 71 ca 3c 2d 86 b9 3c 10 5f 6b 3d
       0.15089197 0.024712479 0.022646988 0.057463706
000050 f1 03 c1 3d e3 06 84 3a b5 dd e3 3d e4 22 d1 3b
       0.0942458 0.0010072853 0.11126272 0.006382333
000060 c0 ef c1 3d 83 d0 d9 3d ba 6d ac 3c 3f 91 7b 3d
       0.09469557 0.106354736 0.021048415 0.061417814
000070 b7 32 bb 3d 7a e7 27 3d f7 28 20 3d 89 16 0b 3d
       0.091405325 0.040992238 0.039101567 0.033957038
000080 45 6c 26 3d fa 08 b9 bb 92 d7 67 3d 41 6b 97 3d
       0.040630598 -0.005646822 0.05660207 0.07393504
000090 23 50 c5 bc 12 ff 51 3c fc ad a1 3b d7 d2 d6 3c
       -0.024086064 0.012817161 0.0049340706 0.026223583
0000a0 60 cc 21 bd 17 da 76 bb c2 fa 96 3d 4f c2 5e 3d
       -0.039501548 -0.0037666613 0.07372047 0.054384526
0000b0 b2 1b ff bc 88 1d 2a bd 91 cf 2f 3d 39 4d 69 3c
       -0.031141136 -0.04153207 0.04292256 0.014239603
0000c0 a6 66 2d bd cc 92 19 3c 6c a4 ed bc 6a b9 00 3c
       -0.04233422 0.009373378 -0.029009067 0.007856706
0000d0 09 d0 69 3c 91 a3 32 3d d3 77 16 3d 37 57 36 bd
       0.014270791 0.04361302 0.036735367 -0.04451677
0000e0 a1 dc 52 bd 15 e5 0e 3c 98 75 cd bc 6d 13 2e 3c
       -0.05147994 0.00872161 -0.025080487 0.010624749
0000f0 f2 9e c6 3c f4 b1 69 bc 33 b5 74 3d 7e a9 19 3d
       0.024245713 -0.014263619 0.059743118 0.037515156
000100 98 d2 6d 3c a9 8f 81 3b 93 cb 0f bc 45 f4 43 bd
       0.0145155415 0.003953893 -0.008776563 -0.047840375
000110 b6 f1 0f 3d 64 f4 3e 3d 7b 48 27 bd 1c 1e 67 bd
       0.035142623 0.046619788 -0.040840607 -0.0564252
000120 28 20 6e 3d 18 59 6d bd f7 62 67 3d 9e 69 33 bd
       0.058136135 -0.057946295 0.056490865 -0.043801896
000130 89 6c 84 3d 71 3f 74 3d 6b e0 3c 3d 3b ff ef bc
       0.06466014 0.059630815 0.04611246 -0.029296508
000140 51 6e 6e bd 75 a5 c5 bc 8d 83 3a bc ff 1c 51 bc
       -0.058210675 -0.024126748 -0.011383903 -0.012763261
000150 f5 01 19 bb 33 8d 5d bd fe 7b 7a ba d7 7d 3e bc
       -0.0023347114 -0.054089736 -0.00095552194 -0.011626682
000160 b8 ff 23 3d fe db 71 bd 95 66 32 3d 18 3d 29 bb
       0.040038794 -0.05904769 0.04355486 -0.0025823768
000170 db a9 e9 bb 81 82 72 bc 16 03 97 3b ec b4 a1 ba
       -0.007130844 -0.014801622 0.004608522 -0.0012337244
000180 47 f0 3c bc 27 5f 10 3d 66 73 da 3c d4 19 b9 bd
       -0.011531896 0.035246994 0.026666354 -0.090381294
000190 77 5d 41 bd bc f6 29 3c 4d 56 96 bd bb ba 86 bc
       -0.047208276 0.010373767 -0.07340679 -0.016446462
0001a0 02 fa 62 bd 7c 82 1c bd 3e 91 7c bd 02 75 80 3c
       -0.055414207 -0.038210377 -0.06166195 0.015680794
0001b0 9d 25 4b bd 89 a0 6e bd 58 fe 9a bd 07 3a 2a bd
       -0.049596418 -0.058258567 -0.075680435 -0.041559245
0001c0 91 a1 19 3d 28 79 8f bd 9b 7f 9e bd 2f 7d 1e bd
       0.037507597 -0.070055306 -0.077391826 -0.038693603
0001d0 76 cb 86 bc 84 a8 12 bd ec 6a 35 3d 4d 53 dd 3c
       -0.01645444 -0.03580524 0.04429142 0.02701726
0001e0 d2 21 8b bc b0 d5 3f 3c 42 7d 83 bd 1d 1f 0c 3d
       -0.0169839 0.011708662 -0.064203754 0.03420936
0001f0 33 5e 92 39 45 c6 a8 bd 3b 80 6d bd 60 75 27 3d
       0.00027917474 -0.08240942 -0.05798362 0.040883422
000200 f3 0c 2c 3c be 9e 1b bd e7 b3 8e bd 1f 4f cb 3c
       0.010501134 -0.037993185 -0.069679074 0.024818001
000210 be b9 6d 3d 31 1d 22 bd 9f bb 6d 3d 31 ba 03 bd
       0.058038466 -0.03957862 0.058040258 -0.032159988
000220 70 19 18 bd 53 88 c0 3c 6f eb 63 bd a8 02 3e 3c
       -0.037133634 0.023502504 -0.05564445 0.011597313
000230 4c 7e 56 3d a0 e5 a3 bc 68 ec 84 3d 13 0d 29 3b
       0.05236654 -0.020006955 0.064904034 0.0025795146
000240 1b b7 09 3d 42 8f 0f 3c 2d 4e 78 3c 3f e0 5e bd
       0.03362189 0.008762183 0.015155357 -0.054413076
000250 1a 77 80 3d fb 86 db bc 67 65 8d 3d 25 92 5c bd
       0.06272717 -0.026797762 0.069041066 -0.05385031
000260 79 88 bb 3b 94 57 25 3d 22 24 a9 bb a3 63 73 bd
       0.005723056 0.040366724 -0.005161778 -0.059421193
000270 4d d4 43 bd 11 9a 7e bd 46 c2 3d bd 9d d8 2c bd
       -0.047809888 -0.062158648 -0.04632785 -0.042198766
000280 3f c7 09 3d 6f bc a7 bb a1 c2 34 3d 4a 58 b7 3a
       0.03363728 -0.0051188986 0.044130925 0.0013988104
000290 5a b9 c9 bc cb 81 9e bc 26 96 35 bd 6b 94 b4 3c
       -0.024624515 -0.019349 -0.044332646 0.022043427
0002a0 25 c8 03 bd 5b 0e 0a 3d 03 aa 48 3b 5a 7b 37 bd
       -0.032173295 0.033705097 0.0030618913 -0.04479537
0002b0 03 ad 15 bd e8 5d c8 3c 38 1f 6c bd ab b4 6f 3c
       -0.03654195 0.02445884 -0.05764696 0.014630477
0002c0 8c 11 11 3d b9 9a 97 bc 1e 26 1b bd ae b1 de 3c
       0.035417125 -0.018506395 -0.03787815 0.027184334
0002d0 60 40 84 bc 8f c0 51 bd cb db 0d bd 74 b9 8f bc
       -0.016143978 -0.05120903 -0.03463344 -0.017544486
0002e0 55 c7 02 bd 82 51 3a 3c 44 69 7b bd 13 8b 17 3d
       -0.03192838 0.011371972 -0.061379686 0.036997866
0002f0 e6 ec 26 3d f2 2b e8 3c ec 02 18 3d a9 6d 1e bc
       0.040753268 0.028341267 0.03711216 -0.0096697
000300 1b bd 73 3d a4 4a 06 bd bb 3b 34 bd ce 8b 16 3d
       0.059506517 -0.032786027 -0.044002276 0.036754422
000310 e9 f2 18 bd ab 9f eb bc c4 99 f3 3c 85 7b d7 3c
       -0.037341032 -0.028762659 0.029736407 0.026304016
000320 b4 20 b8 bb 78 06 46 3d 67 f9 b3 bb d0 22 b7 3c
       -0.005619133 0.048346013 -0.0054923776 0.022355467
000330 ae 68 1c bd 2a 8d 63 3d 52 5e 1d bd 3a 77 53 bd
       -0.038185768 0.055554546 -0.03842003 -0.051627375
000340 16 fc dd bc dd fd 91 bd 42 e3 33 bc 7b 18 af bc
       -0.027097743 -0.07128499 -0.010979475 -0.021373978
000350 ab 26 16 3c f8 a1 e7 bc 0f b8 56 3d 49 a3 d2 bc
       0.009164493 -0.028275475 0.052421626 -0.025712626
000360 46 b8 0d 3d f1 6e d9 b9 16 de 4c 3c e4 f0 5d bd
       0.034599565 -0.00041472123 0.012504121 -0.05418481
000370 53 f5 d6 3d 3a 91 a2 3d c3 dc 9d 3d a8 cf 06 3d
       0.10496011 0.07937856 0.077081226 0.03291288
000380 8e 0d b6 3d 06 c4 9c 3c af 97 cd bc 76 c1 24 3d
       0.08889304 0.01913644 -0.025096742 0.04022356
000390 05 6c c1 3d 74 a4 bf bb bd 08 74 3d d4 f7 ec bc
       0.09444431 -0.0058484618 0.059578646 -0.028926767
0003a0 c5 ab d2 3d 02 72 fd 3b c2 d5 30 3c 9c 50 52 bc
       0.10286669 0.007734538 0.010793151 -0.012836602
0003b0 69 33 82 3d 6c 2f 88 3c 11 73 87 3d 5e eb 82 3d
       0.06357462 0.016624175 0.06613744 0.06392549
0003c0 cc a0 cc 3d 71 9c 40 bb cb 35 ee 3b 69 3d da 3c
       0.09991607 -0.0029390121 0.007269596 0.02664061
0003d0 6f 73 15 bd 2e 05 be bc c3 82 2d 3d 83 42 2d 3d
       -0.03648704 -0.02319583 0.042361032 0.04229976
0003e0 a0 dc 82 3d 34 1d bf 3d 9b 68 ab 3d 2f d5 3c 3d
       0.06389737 0.09331742 0.08369561 0.046101745
0003f0 50 fa 96 3d 26 9c 9a bc 8d f6 92 3d 60 d9 22 3b
       0.07371962 -0.018873286 0.07175932 0.0024848804

bias f4 [20]
000000 9c bd 52 3d 7c 42 43 3d ed 1b 86 3d 80 b9 2c bd
       0.051450357 0.047670826 0.06548295 -0.042169094
000010 88 21 2c 3d 00 86 5f 39 e0 4c 33 3d 20 b2 62 3b
       0.042024165 0.00021316856 0.043774486 0.0034591034
000020 08 9b 2a 3d 50 4e cb 3c 62 45 81 bc 42 39 10 3d
       0.041651756 0.024817616 -0.015780155 0.035210855
000030 ba da c0 bc 9c 79 04 3d 40 48 1a bb 7c 32 7e bd
       -0.023541797 0.03234254 -0.00235416 -0.062059864
000040 84 a8 d1 3c 06 3d 41 bd 10 21 15 3d 50 4e d5 3b
       0.02559305 -0.047177337 0.036408484 0.0065095797

weight f4 [20]
000000 53 ba f6 3e b3 13 0c 3f ea c2 20 3f 0e 4a 3e 3f
       0.4818903 0.5471756 0.62797415 0.7433175
000010 3e 78 fe 3e 2b 19 54 3f 4a 33 07 3f 0f 9c 0a 3f
       0.49701113 0.82850903 0.52812636 0.54144377
000020 e6 8a e3 3e d6 0f d3 3e 36 37 02 3f 74 33 39 3f
       0.4444191 0.4122302 0.50865495 0.72344136
000030 56 8c fe 3e 18 2c e2 3e fb 87 51 3f e4 9b 0e 3f
       0.49716443 0.44174266 0.81848115 0.5570662
000040 29 45 03 3f 0e 52 c6 3e 07 e7 e5 3e 9c de 05 3f
       0.51277405 0.38734478 0.44902822 0.522928

bias f4 [20]
000000 74 8b 25 bf df 04 58 bf 66 84 97 bf 43 27 26 bf
       -0.64665914 -0.8438243 -1.183728 -0.6490366
000010 f9 20 63 bf c6 ed d0 be fe 60 69 bf b0 81 56 bf
       -0.8872219 -0.40806407 -0.91163623 -0.8379164
000020 01 04 4b bf ad b8 48 bf 05 a0 70 bf 36 ec e4 be
       -0.79302984 -0.7840679 -0.9399417 -0.44711465
000030 92 bc 63 bf 7e 3d 64 bf da 51 5a be 1d 68 41 bf
       -0.8895961 -0.8915633 -0.21320286 -0.7554949
000040 78 d6 62 bf 9a be 3c bf 1c ae 5b bf 08 45 74 bf
       -0.88608503 -0.73728335 -0.85812545 -0.95417833

running_mean f4 [20]
000000 ac d1 92 4a 05 6d 50 4a 72 1c 76 4b 7e a8 45 48
       4.810966e+06 3.4148492e+06 1.6129138e+07 202401.97
000010 a4 78 17 4b 52 d0 45 c9 01 b0 ca 4a 57 90 23 4b
       9.92682e+06 -810245.1 6.6416645e+06 1.0719319e+07
000020 6a 3e b8 4a 43 8b 17 4b 4b 6c 69 4b 43 26 ed 48
       6.037301e+06 9.931587e+06 1.5297611e+07 485682.1
000030 04 97 30 4b 07 fa 70 4b 0a 9a 77 4a d2 ad c2 49
       1.1572996e+07 1.5792647e+07 4.0567065e+06 1.5948102e+06
000040 35 e7 1b 4b 1a 56 5f 4b ba ae 25 4b a5 50 28 4b
       1.0217269e+07 1.463657e+07 1.085817e+07 1.1030693e+07

running_var f4 [20]
000000 23 a1 64 53 2c a3 79 52 fb 85 4b 54 35 a1 9a 50
       9.81956e+11 2.680461e+11 3.4965047e+12 2.075405e+10
000010 a3 03 aa 53 02 e4 c4 50 81 f6 27 53 72 d0 04 54
       1.4604109e+12 2.6426216e+10 7.213952e+11 2.2817313e+12
000020 97 26 01 53 1f 56 8e 53 ba c1 35 54 ff fe f3 50
       5.546982e+11 1.2226605e+12 3.122557e+12 3.27486e+10
000030 3a 2e df 53 e5 fb 25 54 34 02 82 52 89 f5 dc 51
       1.9171065e+12 2.8515828e+12 2.7919136e+11 1.18626525e+11
000040 02 d6 c2 53 38 e5 f9 53 c3 aa ab 53 7a 67 cb 53
       1.6736282e+12 2.146585e+12 1.4746086e+12 1.7472288e+12

weight f4 [2, 20]
000000 1e b6 8d be 77 23 87 be f2 e1 da be 07 3f 5b bc
       -0.27678007 -0.26394245 -0.42750508 -0.013381726
000010 80 7d 29 be 5c d2 40 be bd 6e d0 bd 67 50 92 be
       -0.1655178 -0.18830246 -0.10177372 -0.28576967
000020 75 ee 35 bd 8a 09 33 be ca 4f 1d be d1 4e 3b be
       -0.044416863 -0.17484108 -0.15362468 -0.18291785
000030 a7 e8 7b be 56 63 35 bc 8a 87 c4 bd 35 32 46 be
       -0.24600469 -0.011071047 -0.095961645 -0.1935509
000040 be 55 17 be 68 b5 85 3c 5f eb 0b bd 7d 13 c3 3c
       -0.14778802 0.016321853 -0.034160014 0.023813004
000050 61 05 0a 3f ae 77 0b 3f cf 56 ae 3f 62 e1 22 3f
       0.5391446 0.5447949 1.3620242 0.63625157
000060 c8 86 32 3f df 2d c2 3e d2 fe 1e 3f e5 07 13 3f
       0.6973691 0.37925622 0.62107575 0.5743392
000070 58 0e 0b 3f 76 44 01 3f e8 ab 56 3f 59 a5 c8 3e
       0.5431876 0.5049509 0.8385606 0.3918865
000080 e9 a7 3e 3f e3 4c 3d 3f 83 46 d4 b9 1b 91 d2 3e
       0.7447496 0.73945445 -0.00040488326 0.41126332
000090 f9 80 28 3f 06 06 35 3e 9f 99 1d 3f 0d 6d 50 3f
       0.65821797 0.17678079 0.6156253 0.814164

bias f4 [2]
000000 ba 05 1a bf 3e 7a 5e 40
       -0.6016499 3.476211
