jiont/expr/0.9702-0.001364/joint.pth (torch_old, 61958 bytes, 19 tensors)

weight f4 [5, 3, 5]
0	0x3d7b0170	0.061280668
1	0xbdcc51ac	-0.09976515
2	0xbe4583f6	-0.1928862
3	0xbe0a5dd4	-0.13512355
4	0x3e7c060e	0.24611685
5	0x3da2fbd4	0.07958189
6	0x3e12fffa	0.1435546
7	0x3c29dd80	0.010367751
8	0x3d8a8b70	0.06764877
9	0xbe697625	-0.22798975
10	0x3d734bf8	0.05939862
11	0xbdc78950	-0.09742987
12	0xbe6bfabf	-0.23044871
13	0x3e0b2e4c	0.1359188
14	0xbe78dee8	-0.24303782
15	0x3d4a1f73	0.0493464
16	0x3e8089d1	0.25105146
17	0x3e24868c	0.1606695
18	0x3e252437	0.16127096
19	0xbe043335	-0.12910159
20	0xbe13acb3	-0.14421348
21	0x3e6c8627	0.2309805
22	0xbe630b30	-0.22172236
23	0x3e4cd86a	0.2000443
24	0x3e32c5b2	0.17458227
25	0x40365a72	2.8492703
26	0x40a19757	5.049724
27	0x40875d26	4.2301207
28	0xbe937c4f	-0.28805777
29	0xc12009dc	-10.002407
30	0xbe52e4b6	-0.20595059
31	0x3e54eb9c	0.20793003
32	0x3d2a4670	0.04157108
33	0x3e7353ea	0.2376248
34	0x3d9b0fb0	0.075713515
35	0x3dee84b4	0.11646405
36	0x3e6e6a4c	0.23282737
37	0xbd85c3fc	-0.06531522
38	0x3cf4c9e0	0.029881418
39	0x3bb8bb40	0.0056375563
40	0xbe023822	-0.12716725
41	0xbe2dabd9	-0.16960086
42	0xbe6c41a1	-0.2307191
43	0xbccb0960	-0.024784744
44	0x3cd86100	0.02641344
45	0x3e069272	0.13141802
46	0x3e5de9fe	0.21671292
47	0xbe0ca0cf	-0.13733219
48	0x3e460402	0.19337466
49	0xbd23b724	-0.03996958
50	0xbe51ffc4	-0.20507723
51	0x3dbe0894	0.0927898
52	0xbdfd8e2e	-0.12380634
53	0xbe137678	-0.14400661
54	0x3e3eec1e	0.18644759
55	0xbe0178df	-0.12643765
56	0xbe430d1a	-0.19047967
57	0xbd93183a	-0.07182355
58	0xbde410a4	-0.111359864
59	0xbdb7005e	-0.08935617
60	0xbd91a97c	-0.07112405
61	0x3e218b36	0.15775761
62	0x3e35432a	0.17701402
63	0xbe35403c	-0.17700285
64	0x3d9a0c10	0.07521832
65	0x3e7d44e6	0.24733314
66	0x3df25d07	0.1183415
67	0xbdc2a811	-0.095047124
68	0x3e32a3ac	0.17445248
69	0x3e09e1ae	0.13464996
70	0xbce29363	-0.02765817
71	0xbe98f454	-0.29873908
72	0xbdd36ea0	-0.103238344
73	0xbe559f5a	-0.20861569
74	0xbe789bb0	-0.2427814

bias f4 [5]
0	0x3d96c78c	0.07362279
1	0xbcf8b5df	-0.03036016
2	0xbe2b361a	-0.16719857
3	0x3e59231c	0.212048
4	0x3e4c4d79	0.19951428

weight f4 [1, 5, 5]
0	0x3e32fccd	0.17479248
1	0xbe016442	-0.12635902
2	0x3c9db068	0.019249156
3	0x3e3add29	0.18248428
4	0xbe42650b	-0.18983857
5	0xc117b777	-9.482291
6	0xbee43a02	-0.44575506
7	0x40859f98	4.1757317
8	0x40ab5c6f	5.3550334
9	0x403dc793	2.965306
10	0xbd936256	-0.071964905
11	0xbdd85413	-0.10562911
12	0xbd503c00	-0.05083847
13	0x3d102e20	0.03520024
14	0x3cbe2d30	0.023214906
15	0x3e020c9d	0.12700124
16	0x3d128498	0.035770983
17	0x3e3aa161	0.18225624
18	0xbe2482cb	-0.16065519
19	0xbe40769d	-0.18795247
20	0x3f2cd06d	0.6750553
21	0x3f1b1def	0.6059255
22	0x3f2a1166	0.664328
23	0x3f28c591	0.6592646
24	0x3f09cd2f	0.5382871

weight f4 [20, 220]
0	0xbd6ad26a	-0.057329573
1	0xbe2acd6c	-0.16679925
2	0xbe82e839	-0.25567797
3	0xbe9fe275	-0.3122746
4	0xbe99ddc1	-0.30051997
5	0xbe0b3ea5	-0.13598116
6	0xbd11b9ba	-0.035577513
7	0xbd6c3c0f	-0.057674464
8	0x3e0ad3af	0.13557313
9	0x3dc1a231	0.09454764
10	0x3d8bcfa0	0.06826711
11	0x3e6ef519	0.23335685
12	0xbd837557	-0.06418865
13	0xbc5eec34	-0.01360612
14	0xbe67e0b5	-0.22644313
15	0xbed17674	-0.40910685
16	0xbe949fdb	-0.2902821
17	0xbe3b91c1	-0.1831732
18	0x3ca49c24	0.020093985
19	0x3d55405f	0.052063342
20	0xbe63bbce	-0.2223961
21	0xbd14779e	-0.03624689
22	0xbb5c55d1	-0.0033620487
23	0xbdb6b764	-0.08921698
24	0xbe51f9cc	-0.20505446
25	0xbdfca6f3	-0.123365305
26	0x3c13d939	0.009023958
27	0x3e3b0e18	0.18267095
28	0x3e7654e9	0.24055828
29	0x3de01b2b	0.10942682
30	0x3dfcd7de	0.12345861
31	0x3e18d9b6	0.149268
32	0x3e1d5542	0.15364555
33	0x3ebbf065	0.36706844
34	0x3ec54d7a	0.38535672
35	0x3e38b15f	0.18036412
36	0xbd9a3673	-0.075299166
37	0xbe6664a6	-0.22499332
38	0xbe54325c	-0.20722336
39	0xbece8015	-0.40332094
40	0xbed7da3e	-0.42158693
41	0xbedec5a4	-0.43510163
42	0xbe4de0bf	-0.20105265
43	0x3d678132	0.056519695
44	0x3ce1128c	0.027474664
45	0xbe8466ab	-0.2585958
46	0xbeb28846	-0.34869593
47	0xbeab26f7	-0.33428165
48	0xbe0fbce9	-0.14036907
49	0xbde1b780	-0.11021328
50	0xbe749731	-0.238858
51	0xbe0122d7	-0.12610947
52	0xbe158a96	-0.14603648
53	0x3e41b12c	0.18915242
54	0x3d33d680	0.043905735
55	0xbd57eb9f	-0.05271494
56	0xbe480b65	-0.19535597
57	0x3e140291	0.14454104
58	0x3e562283	0.20911603
59	0x3e5c116e	0.21491024
60	0x3e7c406a	0.24633947
61	0xbd6b8f41	-0.057509664
62	0x3df617ae	0.12016235
63	0x3e069b8f	0.13145278
64	0x3eb2ad38	0.3489778
65	0x3ea6e049	0.3259299
66	0x3e408cc8	0.18803704
67	0x3dbfbb98	0.093619525
68	0x3da6365b	0.08115836
69	0x3e8f0a0d	0.27937356
70	0x3ed534de	0.41641897
71	0x3e85384b	0.2601951
72	0x3e0ed6a8	0.13949072
73	0xbb3bbdd1	-0.0028647075
74	0xbe4cb7da	-0.19992009
75	0xbe0e28c6	-0.13882741
76	0x3d1021b5	0.035188396
77	0x3e87a6fc	0.26494586
78	0x3e80930c	0.25112188
79	0x3dd67a00	0.104724884
80	0x3d57f5af	0.052724537
81	0x3e09b0a2	0.13446286
82	0x3d973193	0.073825024
83	0xbe3d73a4	-0.18501145
84	0xbe1486e7	-0.14504586
85	0xbe69b9a6	-0.22824726
86	0xbe32a045	-0.1744395
87	0xbd92eae5	-0.07173709
88	0xbe41e717	-0.1893581
89	0xbef0b989	-0.47016552
90	0xbef51b97	-0.47872612
91	0xbdd8ddf9	-0.10589213
92	0x3e6ac6f8	0.22927463
93	0x3f261c8f	0.64887327
94	0x3f048727	0.51768726
95	0x3e7f83b3	0.24952583
96	0x3eb9be4b	0.36277995
97	0x3e997968	0.29975438
98	0x3e089ea7	0.13341771
99	0x3d9b1b52	0.0757357
100	0x3d1331b0	0.035936058
101	0x3d155d20	0.036465764
102	0x3ba93087	0.0051632556
103	0x3dfbd1b1	0.12295855
104	0xbb3a1dc8	-0.0028399099
105	0xbd9512fe	-0.07279013
106	0xbe271584	-0.16316801
107	0xbea0ebb0	-0.31429815
108	0xbae08bc3	-0.0017131496
109	0x3d83a088	0.06427103
110	0x3d8a8c6d	0.06765065
111	0xbea7f6d5	-0.32805505
112	0xbeff149f	-0.4982042
113	0xbef170cd	-0.47156373
114	0xbe70faed	-0.2353322
115	0xbb632bf0	-0.003466364
116	0x3ec0e79d	0.37676707
117	0x3f328b96	0.6974424
118	0x3f5e7d86	0.86910284
119	0x3eeb6cfc	0.45981586
120	0xbec1b1e8	-0.37831044
121	0xbf4fdf70	-0.81200314
122	0xbefd92be	-0.49526018
123	0x3e41ba86	0.1891881
124	0x3eb64c33	0.3560501
125	0x3e22040c	0.15821856
126	0xbde3f5f7	-0.111308984
127	0xbed3a130	-0.41333914
128	0xbed475d3	-0.41496143
129	0xbebef7cb	-0.37298426
130	0xbe72759d	-0.23677678
131	0xbe645dba	-0.22301379
132	0x3de3a2a1	0.111150034
133	0x3e773b03	0.24143605
134	0x3e9c5445	0.30533043
135	0x3e8da9e9	0.27668694
136	0x3d5a46f9	0.05329034
137	0xbdc79bb1	-0.09746493
138	0xbe22989e	-0.15878531
139	0xbe0dbdcd	-0.13841935
140	0xbe61311d	-0.21991391
141	0x3d0336b3	0.032034587
142	0x3d6f3de0	0.058408618
143	0xbd514120	-0.0510875
144	0xbd45d6fb	-0.048300724
145	0x3c3b989a	0.011449957
146	0x3d537229	0.051622543
147	0x3df69e72	0.1204194
148	0x3d5b244a	0.053501405
149	0xbd841960	-0.064501524
150	0xbe10cee8	-0.14141428
151	0xbe38fce3	-0.18065219
152	0xbe293d2f	-0.16527246
153	0xbe75f0af	-0.24017595
154	0xbe971429	-0.29507568
155	0xbe7c0878	-0.24612606
156	0xbd2c9d70	-0.04214233
157	0xbd5a841d	-0.05334865
158	0xbd563a76	-0.052301846
159	0x3c0ae8e8	0.008478381
160	0xbda6a07c	-0.08136079
161	0xbe62ee19	-0.2216114
162	0xbe552961	-0.20816566
163	0x3d5c7f44	0.053832307
164	0xbe07dc73	-0.13267688
165	0xbe015dca	-0.12633434
166	0xbe176699	-0.14785232
167	0x3ca13b20	0.019681513
168	0x3e50a2e5	0.2037464
169	0xbd226876	-0.039650403
170	0xbd145bf8	-0.03622052
171	0x3ca48dbc	0.020087115
172	0x3e403794	0.18771201
173	0x3ec3fe0a	0.38279754
174	0x3ee9e0c4	0.45679295
175	0x3ead0dcc	0.3379959
176	0xbd7d497b	-0.061837655
177	0xbd645cf6	-0.055752717
178	0xbc52eded	-0.012874109
179	0x3d1696af	0.036764797
180	0x3e58a243	0.21155648
181	0x3e67615a	0.2259573
182	0x3d888b26	0.066671655
183	0x3e172956	0.14761862
184	0x3d896ded	0.0671042
185	0x3e8ab053	0.2708765
186	0x3ec5c2e9	0.38625267
187	0x3e8bbd44	0.27292836
188	0x3e32dfc8	0.17468178
189	0xbd0180f9	-0.03161714
190	0xbe618012	-0.22021511
191	0xbd7242d4	-0.059145764
192	0x3b15126b	0.0022746574
193	0xbe0789e2	-0.13236192
194	0xbe33fda3	-0.17577223
195	0xbe3fedef	-0.18743108
196	0xbe5f8ed5	-0.2183183
197	0xbe655d70	-0.22398925
198	0xbe752c9c	-0.23942798
199	0xbe929168	-0.2862656
200	0xbe9c66f0	-0.30547285
201	0xbeaa4252	-0.33253723
202	0xbecb879d	-0.39751902
203	0xbedee657	-0.4353511
204	0xbea3d1bb	-0.3199595
205	0xbe47c579	-0.19508924
206	0xbea76e92	-0.32701546
207	0xbeebfc5d	-0.46090975
208	0xbf18c613	-0.5967724
209	0xbec0fbcb	-0.37692103
210	0xbe71b9b3	-0.23605995
211	0xbed3dc80	-0.41379166
212	0xbee98154	-0.45606482
213	0xbee2b153	-0.44275913
214	0xbe5897dd	-0.21151681
215	0x3d4c751e	0.04991638
216	0xbe4f8947	-0.20267211
217	0xbf82de95	-1.0224177
218	0xbee5a987	-0.44855902
219	0x3d2c19ca	0.042016782
220	0xbd805526	-0.06266241
221	0xbe1a92c9	-0.15095057
222	0xbdb839ca	-0.089953974
223	0xbc634a00	-0.013872623
224	0xbb307547	-0.0026925371
225	0xbde36fb9	-0.11105294
226	0xbe09fc47	-0.13475142
227	0xbe19db8c	-0.15025157
228	0xbe2b5ee9	-0.16735424
229	0xbe421d90	-0.1895659
230	0xbe304e56	-0.17217383
231	0xbe269202	-0.16266635
232	0xbe8daef2	-0.27672535
233	0xbe629b4a	-0.2212955
234	0xbe971eec	-0.2951578
235	0xbe85b8e8	-0.26117635
236	0xbe64b9f3	-0.22336559
237	0xbe7ba47b	-0.24574463
238	0xbe6a54ef	-0.22883962
239	0xbe7063af	-0.23475526
240	0xbe9d690c	-0.30744207
241	0xbe91817a	-0.28419095
242	0xbe8b81d8	-0.272475
243	0xbe389a80	-0.18027687
244	0xbe9042e3	-0.2817603
245	0xbe959b45	-0.29220024
246	0xbe6d5974	-0.23178655
247	0xbe8cae26	-0.27476615
248	0xbe346786	-0.17617616
249	0xbe806a67	-0.2508118
250	0xbe3dc097	-0.18530498
251	0xbe3da784	-0.18520933
252	0xbe82ca2a	-0.25544864
253	0xbe5948c7	-0.21219169
254	0xbe6970c1	-0.22796918
255	0xbe46bbbb	-0.19407551

bias f4 [20]
0	0x3d81738d	0.06320868
1	0xbd5a67d9	-0.053321693
2	0x3ca11768	0.019664481
3	0xbd122b8c	-0.03568606
4	0x3d529bae	0.051418
5	0xbcb68ff8	-0.022285447
6	0x3d83c821	0.06434656
7	0x3c5cbe18	0.013473056
8	0xbcbb566e	-0.022868361
9	0x3d478130	0.048707187
10	0x3b977040	0.0046215355
11	0x3cade854	0.021228947
12	0xbd453396	-0.0481449
13	0xbceec40e	-0.02914622
14	0xbd3b22bc	-0.045687422
15	0x3c605178	0.013691299
16	0x3d395baa	0.045253433
17	0x3ca0d864	0.019634433
18	0x3aa72140	0.0012750998
19	0xbd4f915f	-0.050675746

weight f4 [20]
0	0x3fce9f32	1.6142333
1	0x3e29dd45	0.16588314
2	0x3fa5aba1	1.2943002
3	0x4013b170	2.307705
4	0x3f0796af	0.529643
5	0x4044149e	3.0637584
6	0x402fedd9	2.748892
7	0x3e6f7a58	0.23386514
8	0x3f7ed1ae	0.99538696
9	0x4010519d	2.2549813
10	0x3fd6a0a3	1.6767772
11	0x3e1f1d3b	0.15538494
12	0x40135794	2.3022203
13	0x3efd283a	0.49444753
14	0x3fe8ea3e	1.8196485
15	0x3fdecd87	1.7406472
16	0x3f302b28	0.6881585
17	0x3ecf022f	0.40431353
18	0x40169b28	2.35322
19	0x4026db09	2.6071188

bias f4 [20]
0	0xbf5548ee	-0.83314407
1	0xbea9ca56	-0.33162183
2	0xbf5deb37	-0.86687034
3	0xbf24f053	-0.64429206
4	0x3e8fabf1	0.28060868
5	0xc0321eaa	-2.7831216
6	0xbfa24400	-1.2677002
7	0xbed0cdff	-0.40782163
8	0xbf4bed4a	-0.7965895
9	0x3fc4784b	1.534921
10	0xbf7934a5	-0.97345954
11	0xbe9b06fa	-0.3027876
12	0xbf01ad9c	-0.5065553
13	0xbf7a30c6	-0.9773067
14	0x3f4be74a	0.79649794
15	0xbebbe7e3	-0.36700353
16	0xbf4bea63	-0.7965452
17	0xbda5dfd9	-0.08099336
18	0xbe26a27d	-0.16272922
19	0x3f856dc0	1.0424118

running_mean f4 [20]
0	0xcb1b51c3	-1.0179011e+07
1	0xcc535dd2	-5.5408456e+07
2	0x4b80dd28	1.6890448e+07
3	0x49fe13df	2.0814039e+06
4	0x4c43cc44	5.132725e+07
5	0xcbd1ac3b	-2.748223e+07
6	0x4b9a6e36	2.0241516e+07
7	0xcb16f0a6	-9.892006e+06
8	0x4b5220a4	1.3770916e+07
9	0xca496111	-3.2993962e+06
10	0x4aa9879b	5.5551495e+06
11	0xcc49ab01	-5.2866052e+07
12	0x4c3d7ae1	4.9671044e+07
13	0xcc2a0db5	-4.4578516e+07
14	0xcb32cce6	-1.1717862e+07
15	0xca8124b0	-4.231768e+06
16	0x4c100d88	3.776259e+07
17	0x4c6966b8	6.1184736e+07
18	0xcad9cd7c	-7.136958e+06
19	0xcaf04a94	-7.873866e+06

running_var f4 [20]
0	0x53b16bfd	1.5240419e+12
1	0x56052e0d	3.660821e+13
2	0x5517e50d	1.0438126e+13
3	0x539180fc	1.2498685e+12
4	0x56061838	3.6859644e+13
5	0x55bc008e	2.583882e+13
6	0x54d1f4d6	7.2140466e+12
7	0x531afab2	6.6563093e+11
8	0x5385b5d0	1.1485619e+12
9	0x53bfe23a	1.6482684e+12
10	0x53ce2e7b	1.7710862e+12
11	0x55cac5b8	2.7868818e+13
12	0x55b70392	2.5153245e+13
13	0x55a7b184	2.3047608e+13
14	0x54762857	4.228955e+12
15	0x538264de	1.120076e+12
16	0x554ae5ae	1.3942988e+13
17	0x55eaf3ce	3.2291607e+13
18	0x547180f2	4.1490018e+12
19	0x53ed1576	2.0365346e+12

weight f4 [2, 20]
0	0x3f8d44b9	1.1036597
1	0x3e19c781	0.15017511
2	0xbf208338	-0.62700224
3	0xbfb07e84	-1.378861
4	0x3e986ba6	0.2976963
5	0xc0179d64	-2.3689814
6	0x3fb265f3	1.3937362
7	0xbe0cdb57	-0.13755547
8	0x3f3734cc	0.71564937
9	0x3fae13f8	1.3599844
10	0x3f2b7efd	0.66990644
11	0x3da8fc04	0.08251193
12	0xbf888179	-1.0664512
13	0x3e791ad0	0.24326634
14	0x3f9bd287	1.2173623
15	0x3f894979	1.0725547
16	0x3ef7c3f7	0.48391697
17	0xbe61c300	-0.22047043
18	0xbfa38773	-1.2775711
19	0xbfa3af0e	-1.2787797
20	0xbf569f75	-0.8383706
21	0xbd698c09	-0.057018314
22	0x3eff116d	0.49817982
23	0x3faaa17a	1.3330529
24	0xbe2f834f	-0.17139934
25	0x40152b2e	2.3307605
26	0xbfb03c5a	-1.3768418
27	0x3c331c5f	0.010932057
28	0xbf158f74	-0.5842202
29	0xbf825e24	-1.018498
30	0xbf8769d3	-1.057917
31	0xbd90cd29	-0.07070381
32	0x3fa3ae54	1.2787576
33	0xbed49800	-0.41522217
34	0xbf7ee444	-0.99567056
35	0xbf4d3539	-0.80159336
36	0xbecff2fc	-0.4061507
37	0x3d68431a	0.056704618
38	0x3f832ec8	1.0248652
39	0x3fc47f19	1.5351287

bias f4 [2]
0	0xbf076cb6	-0.52900255
1	0x3eac27d2	0.3362413

weight f4 [20, 220]
0	0xbce1aeab	-0.027549108
1	0x3d0f03c8	0.034915715
2	0x3b747d8b	0.0037306275
3	0x3cd140f8	0.025543675
4	0xbcaf00c6	-0.021362673
5	0x3c803e91	0.015654834
6	0x3da6e334	0.08148804
7	0x3d67203f	0.056427237
8	0x3d89e4b4	0.06733075
9	0x3db6b53d	0.08921287
10	0x3d16dd88	0.036832362
11	0x3d99979d	0.07499621
12	0x3af9bc81	0.0019053371
13	0x3db554b3	0.08854046
14	0x3deab267	0.11459809
15	0x3dc12e7c	0.09432694
16	0x3dc6b8dc	0.09703228
17	0x3d4caefc	0.049971566
18	0xbb424a93	-0.00296465
19	0x3d78ec61	0.060772303
20	0x3da6000f	0.0810548
21	0x3d3bce18	0.045850843
22	0x3cdd939f	0.02704793
23	0x3caabac9	0.02084102
24	0xbb73ba7a	-0.0037190006
25	0x3d120029	0.035644684
26	0x3d708d3b	0.058728438
27	0x3cf9e27b	0.030503502
28	0x3db6b044	0.08920339
29	0x3d29b613	0.041433405
30	0x3d4aff87	0.049560096
31	0x3d147ef9	0.036253903
32	0x3ddfae8c	0.10921964
33	0x3d9cc947	0.07655578
34	0x3c9a5d8b	0.018843433
35	0x3d55e087	0.05221608
36	0x3b422a3e	0.002962723
37	0x3db11ab6	0.08647673
38	0x3c402e6a	0.011729816
39	0x3d89b128	0.06723243
40	0x3d8ca50c	0.06867418
41	0xbb835dde	-0.0040089926
42	0x3d4e63e2	0.050388224
43	0xbcb5f311	-0.02221063
44	0x3d2e0aa7	0.042490628
45	0x3d9fce78	0.07803053
46	0xbcb4390d	-0.02199986
47	0x3d0f1ab7	0.034937587
48	0x3dae75f5	0.08518592
49	0x3c57e728	0.013177671
50	0xbc3ba247	-0.011452264
51	0x3d38709e	0.045029275
52	0xbcc56964	-0.024098106
53	0x3d3f4f4e	0.04670649
54	0x3de0e022	0.1098025
55	0x3bc567fa	0.006024358
56	0x3d9e327b	0.07724472
57	0xba53149b	-0.00080520817
58	0x3c951f17	0.018203301
59	0x3d8d1b5d	0.06889985
60	0xbc58c764	-0.013231132
61	0x3dd464ee	0.10370813
62	0x3bf66684	0.007519545
63	0x3ca2904e	0.0198442
64	0x3cf7253c	0.030169122
65	0x3da51430	0.08060491
66	0x3c970f04	0.018439777
67	0x3dddab18	0.10823649
68	0xbb3cb657	-0.0028795206
69	0x3cd07367	0.025445653
70	0x3d5e16c6	0.054220937
71	0x3cf2f64e	0.029658463
72	0x3dd3e5cc	0.10346565
73	0x3d4bd818	0.04976663
74	0x3dd45117	0.10367029
75	0xbca1e997	-0.019764705
76	0x3dc67db6	0.09691946
77	0x3d6e8a76	0.058237515
78	0xbc6a83e4	-0.014313672
79	0x3d38027f	0.044924255
80	0x3c66d78b	0.014089475
81	0x3dcd45ee	0.10023104
82	0x3d7ee01a	0.06222544
83	0x3b7b56fa	0.0038351403
84	0x3a4a6ff7	0.00077223725
85	0x3d049449	0.03236798
86	0x3d032c00	0.032024384
87	0x3d88e131	0.06683577
88	0x3d944816	0.07240312
89	0x3c021d76	0.007941594
90	0x3d9f862a	0.07789262
91	0x3cc790ee	0.0243611
92	0x3d0aad9f	0.033856984
93	0x3bd164dd	0.0063901977
94	0x3bed39d3	0.007239559
95	0x3d5de3f0	0.054172456
96	0x3d95fc95	0.07323567
97	0x3d045740	0.03230977
98	0x3dd1bd64	0.102412015
99	0x3de056ff	0.10954093
100	0x3dd5c47c	0.10437867
101	0x3de6298d	0.11238394
102	0xbb6a6800	-0.0035767555
103	0x3c91416c	0.01773139
104	0xbb18ecf8	-0.0023334604
105	0x3d88c2a7	0.06677752
106	0x3cd54e8c	0.02603843
107	0x3d883810	0.06651318
108	0x3c8afb9c	0.01696568
109	0x3db3e105	0.087831534
110	0x3c840547	0.016115798
111	0x3de27458	0.11057347
112	0xbb5055a2	-0.0031789322
113	0xbb09eee1	-0.0021046924
114	0x3d8f97ba	0.070113614
115	0x3d8abd47	0.06774383
116	0xbb3e3dea	-0.0029028603
117	0x3d52f0f3	0.05149932
118	0x3c3f7457	0.011685452
119	0x3c6e9c5c	0.014563646
120	0x3d901190	0.070346
121	0x3ba47af2	0.005019539
122	0xbbb14448	-0.005409751
123	0x3dc0ae1f	0.09408211
124	0x3d288b97	0.04114875
125	0xbb81414a	-0.0039445506
126	0xbbeb798e	-0.0071861213
127	0x3b76047c	0.0037539294
128	0x3d0c8f4c	0.034316346
129	0x3d93cff2	0.07217397
130	0x3ca5517c	0.020180456
131	0x3de47070	0.11154258
132	0x3d956f1f	0.07296585
133	0x3cf63998	0.03005676
134	0x3d5aca4e	0.05341559
135	0x3dc0cf43	0.09414532
136	0x3d20753c	0.039174303
137	0x3d85a519	0.065256305
138	0xbc32df0f	-0.010917439
139	0x3d27f7c1	0.04100776
140	0x3dde1350	0.10843527
141	0x3d479302	0.048724182
142	0x3d9d77a6	0.07688837
143	0x3db058d6	0.08610694
144	0x3d9e1ed0	0.07720721
145	0x3da3fe31	0.080074675
146	0x3db4391e	0.08799957
147	0x3d36d339	0.04463503
148	0x3dcc6da3	0.09981849
149	0x3daf4727	0.08558493
150	0x3cc4a322	0.024003569
151	0x3d1ba06f	0.0379948
152	0x3dbc1904	0.09184459
153	0x3d01b0e7	0.031662848
154	0x3ca70e67	0.02039261
155	0xbc4fb990	-0.012678519
156	0xbcbf472c	-0.023349367
157	0xbc7fa8c2	-0.0156042
158	0xbc4e1d79	-0.012580269
159	0x3c864523	0.016390389
160	0x3c93f09f	0.018059073
161	0x3b8e56df	0.004343852
162	0x3dd3d557	0.10343426
163	0x3db197b1	0.08671511
164	0x3d48c924	0.049019948
165	0x3d223f76	0.039611302
166	0x3b0d0a70	0.0021521114
167	0x3b25a8fa	0.002527772
168	0x3c82b7c3	0.015956765
169	0x3dc14f87	0.09438997
170	0xbcc1de82	-0.02366567
171	0x3dac2327	0.08405142
172	0x3b4b56d1	0.0031027088
173	0x3d5a48f2	0.053292222
174	0x3d278c99	0.04090557
175	0x3d59542e	0.053058796
176	0x3d0bb9de	0.034112804
177	0x3cf77514	0.030207194
178	0x3da53b8b	0.080679975
179	0xbbe4473e	-0.0069665005
180	0x3d7f20c4	0.062287107
181	0x3dc1db05	0.09465603
182	0xbb92a64c	-0.0044753905
183	0xbc668193	-0.014068979
184	0x3bfa4490	0.007637568
185	0x3c61d24f	0.013783052
186	0x3dabfeb4	0.0839819
187	0x3d692279	0.05691764
188	0x3dc06e7b	0.093960725
189	0x3d3cf50b	0.04613213
190	0x3c8ea1ae	0.01741108
191	0x3d36bfd6	0.044616543
192	0x3daa87a5	0.083266534
193	0x3d9f3833	0.07774391
194	0x3db4982a	0.088180855
195	0x3cd0308a	0.02541377
196	0xbc15962f	-0.009130045
197	0xbcbac329	-0.022798138
198	0x3c9b24e2	0.018938486
199	0x3da3f5e1	0.08005882
200	0x3cec01c1	0.02880943
201	0xbd00865c	-0.031378135
202	0xbbbe8c5e	-0.005815073
203	0x3cd1f897	0.025631232
204	0x3d7e68f5	0.062111814
205	0x3d38ab9f	0.045085546
206	0x3d2d339d	0.04228555
207	0x3d955396	0.072913334
208	0x3cabae90	0.020957261
209	0x3d0d7ca8	0.03454271
210	0x3d3f22be	0.046663992
211	0x3bbe413e	0.0058061173
212	0x3d919cbd	0.071099736
213	0x3daea5ba	0.085277036
214	0x3daed7d3	0.08537259
215	0xb9a20ff9	-0.00030910948
216	0xbc98dff4	-0.018661477
217	0x3d7b4bb5	0.061351497
218	0xbd12b897	-0.03582057
219	0x3c01eea0	0.007930428
220	0xbd1863f8	-0.037204713
221	0x3d615987	0.05501702
222	0xbd028964	-0.031869307
223	0xbc40ae93	-0.011760372
224	0xbd9296f6	-0.071577
225	0xbbcf0764	-0.0063180197
226	0xbcee0b02	-0.029057983
227	0xbc941100	-0.018074512
228	0xbd1d29d8	-0.038369983
229	0x3c4f2940	0.012644112
230	0x3b4e1cef	0.0031450351
231	0xbc88144a	-0.016611237
232	0xbd60d112	-0.054886885
233	0xbd5ec235	-0.05438443
234	0xbcea2c80	-0.028585672
235	0xbd0ad04e	-0.03389006
236	0x3cb7cf97	0.022437854
237	0xbc3ab5d8	-0.011395894
238	0xbd108ab8	-0.035288543
239	0x3b395ca5	0.002828398
240	0x3d4535ef	0.04814714
241	0x3d7a5e33	0.06112499
242	0xbc685534	-0.01418047
243	0x3d65f023	0.056137215
244	0x3d155ac2	0.036463507
245	0xbd76ff89	-0.06030229
246	0x35d716fb	1.6025436e-06
247	0xbd2452f0	-0.040118158
248	0xbae4ab5f	-0.0017446092
249	0xbd38d501	-0.04512501
250	0xbd871b53	-0.065970086
251	0x3d1faf55	0.03898557
252	0x3c80de80	0.015731096
253	0xbd65e45a	-0.056125976
254	0x3be50a18	0.0069897287
255	0x3d58a59a	0.052892305

bias f4 [20]
0	0xbc6d2180	-0.014473319
1	0x3d5255f0	0.051351488
2	0xbd203db4	-0.039121345
3	0xbd7672d8	-0.060168117
4	0x3d1b4e02	0.03791619
5	0xbd09c741	-0.03363729
6	0xbd31a298	-0.043367952
7	0xbca6163a	-0.02027427
8	0x3d5ed39c	0.054401025
9	0xbcdbe5a2	-0.026842896
10	0x3d891725	0.066938676
11	0xbd4f7f66	-0.050658606
12	0x3d1915a6	0.03737416
13	0x3ce38534	0.027773477
14	0xbcaf921a	-0.021431971
15	0x3b1444e0	0.002262406
16	0xbc3a90b0	-0.011387035
17	0xbd2f8e68	-0.04286042
18	0xbd33a774	-0.043860868
19	0xbd522962	-0.051308997

weight f4 [20]
0	0x3f772b10	0.96550083
1	0x3f8427c8	1.032464
2	0x3f7a8ce3	0.97871226
3	0x3f92afea	1.1459935
4	0x3f7f987e	0.9984206
5	0x3f9634ca	1.173486
6	0x3f8abab6	1.083823
7	0x3f9ea732	1.2394774
8	0x3f8ae33e	1.0850599
9	0x3f911c24	1.1336713
10	0x3f89b68b	1.0758833
11	0x3f84324e	1.0327852
12	0x3f919f37	1.1376714
13	0x3f87969d	1.0592839
14	0x3f752811	0.9576426
15	0x3f8bd1b6	1.0923374
16	0x3f87413e	1.0566785
17	0x3f8ec527	1.1153916
18	0x3f777520	0.96663094
19	0x3f8e0eba	1.1098244

bias f4 [20]
0	0xbdc5f12e	-0.09665142
1	0x3d5383f2	0.051639505
2	0xbd8b5c61	-0.06804729
3	0x3ee0c9b3	0.43903884
4	0xbb1d8970	-0.0024038218
5	0x3f0534f2	0.52033913
6	0x3e66ba26	0.22531947
7	0x3f5223f1	0.8208609
8	0x3e6721b1	0.22571446
9	0x3eeb6bd3	0.459807
10	0x3e8ceaf2	0.27523
11	0x3db25967	0.087084584
12	0x3f133576	0.5750345
13	0x3d8b87ec	0.068130344
14	0xbd7a15d1	-0.061055962
15	0x3e46e084	0.19421583
16	0x3e1e0a14	0.15433532
17	0x3ef5b937	0.4799287
18	0xbdf32c7a	-0.118737176
19	0x3e9f11a6	0.31068152

running_mean f4 [20]
0	0x4b7ef95f	1.6709983e+07
1	0x49a25809	1.3299211e+06
2	0x4b29d4e1	1.1130081e+07
3	0x4a297080	2.776096e+06
4	0x4a008847	2.1058738e+06
5	0xc911dfaa	-597498.6
6	0xc9c39eb0	-1.602518e+06
7	0xcb90eea6	-1.8996556e+07
8	0xc95f8eb9	-915691.56
9	0xca9e27ed	-5.1824545e+06
10	0x4a51c43b	3.4368148e+06
11	0x4a0bda6c	2.291355e+06
12	0x4b965fd1	1.9709858e+07
13	0x4a84e8fd	4.3551985e+06
14	0xca4fa73a	-3.4021905e+06
15	0x48fc2f54	516474.62
16	0xc992b076	-1.2016788e+06
17	0x4b399d01	1.2164353e+07
18	0x4ae47791	7.4864085e+06
19	0x4a0615f1	2.1968602e+06

running_var f4 [20]
0	0x5426f438	2.8682475e+12
1	0x506e923c	1.6010244e+10
2	0x53aa1232	1.4608994e+12
3	0x52ee5eaf	5.1189537e+11
4	0x519075f3	7.755677e+10
5	0x520a2e19	1.4836972e+11
6	0x50c60e8b	2.6582735e+10
7	0x5445fa06	3.401213e+12
8	0x51a5103f	8.861777e+10
9	0x520b5733	1.4961585e+11
10	0x51d3f184	1.1378626e+11
11	0x5118c984	4.1013494e+10
12	0x5491cffc	5.010077e+12
13	0x521a723c	1.6583537e+11
14	0x529b3421	3.3329725e+11
15	0x50a791d7	2.2490823e+10
16	0x51d61028	1.1492426e+11
17	0x53b633bb	1.5651039e+12
18	0x531729fb	6.492444e+11
19	0x52766038	2.6454406e+11

weight f4 [2, 20]
0	0x3cba8743	0.022769576
1	0x3d3df0d5	0.046372253
2	0xbe14dc43	-0.14537148
3	0xbdc2e28d	-0.095158674
4	0xbe30c9bd	-0.17264457
5	0xbc67745e	-0.014126865
6	0xbe41cb00	-0.18925095
7	0xbe461b07	-0.19346248
8	0xbdcfa753	-0.101393364
9	0xbc2ae5ca	-0.010430763
10	0xbe0d398b	-0.13791482
11	0xbe88b913	-0.267037
12	0xbc9be9c8	-0.019032374
13	0xbd554615	-0.05206879
14	0xbe15ab40	-0.14616108
15	0xbe034c3b	-0.12822048
16	0x3d021628	0.03175941
17	0xbe57e820	-0.21084642
18	0xbd52c363	-0.051455867
19	0xbe78874c	-0.24270362
20	0x3da56d1c	0.080774516
21	0x3f19dcdd	0.60102636
22	0x3ce02ec0	0.027366042
23	0x3f78e453	0.97223395
24	0x3f1dad02	0.61592114
25	0x3f73a95a	0.95180285
26	0x3f3c3f01	0.73533636
27	0x3f9ca264	1.2237058
28	0x3f1fcabf	0.6241874
29	0x3f50d6ba	0.81577647
30	0x3f17e9d3	0.5934116
31	0x3f0336ad	0.51255304
32	0x3f5ee136	0.87062395
33	0x3f47356e	0.778159
34	0x3eac94af	0.33707187
35	0x3f4a5ede	0.79051006
36	0x3f13d5d4	0.5774815
37	0x3f46d88b	0.7767417
38	0xbd731ad8	-0.059351772
39	0x3f4180a1	0.755869

bias f4 [2]
0	0xbe80d4f2	-0.25162464
1	0x4019c976	2.4029212
